lstm_model.pt (torch, 343019 bytes, 14 tensors)

lstm.weight_ih_l0 f4 [256, 3]
-1.1433567 1.634556 0.39373052 -1.1352783 1.8515848 0.58740693 0.50562876 1.5592359
0.13217013 -2.0723531 -0.88783765 -1.1360288 0.61906123 1.2272404 -0.066112116 0.57383937
2.1912954 0.08609173 -0.23514272 -2.3335192 -0.049558442 -2.111353 0.55452055 -0.4234151
0.75104886 0.5544343 0.85197073 -0.64652675 0.4641091 -0.06624142 -1.6492722 -0.15606667
-0.7779684 0.6528249 1.0842067 0.0062054093 -0.12021505 1.9747494 0.012538278 0.44126025
1.6476676 0.23780203 -1.9496955 -0.71321166 -0.9839681 0.49111223 0.46828404 0.03549009
0.46828377 1.8201679 0.047104567 0.5451321 3.1571453 2.2480848 -0.010421988 1.851612
-0.13751006 0.5258369 2.3760908 0.14543864 0.16755672 -0.21722806 -0.46392766 -1.5755702
1.720386 0.75944936 -0.81313133 -1.6986554 -0.6923812 -1.518353 -1.5387224 -1.0703881
-1.9242055 -0.46790907 -1.1132375 0.8849876 1.5807418 0.18698731 0.47666162 2.613655
0.22420664 0.6146365 1.0563492 -0.13831925 0.5956798 1.8325424 0.35110107 -1.4449381
1.8510537 0.4510662 3.1016536 4.834005 3.892778 0.49541047 0.6084487 1.4102364
3.3325326 -1.568919 1.605161 0.16000469 1.7820878 0.011284837 0.3878523 0.29057682
0.03417909 0.4336251 1.6454816 0.3443045 -1.1035097 -1.2249117 -0.98124343 -1.5837647
-1.2658626 -0.94208807 0.011715904 1.8776901 0.07100032 -1.6953372 2.7054234 1.4332522
-1.202498 1.7643855 0.35946393 -0.13010362 -0.29094878 -0.49060565 0.57548773 2.575529
0.28718957 -0.7140675 -1.7578404 -0.645566 0.78077966 2.5135984 0.3514725 -0.5874233
-0.58106935 -0.49985582 2.318811 3.4265695 2.9108229 2.109341 3.2932541 3.0037265
2.714697 4.1075144 2.9535549 3.2702768 3.9459634 2.7924469 0.61404866 2.1939971
0.2288916 -1.4696772 1.998611 0.50231475 -1.0168345 1.4342471 0.5962409 2.3733647
2.9440577 2.9739854 0.3255267 3.733359 2.1471553 -1.5975572 -1.2626988 -1.2238718
-0.99178284 1.1273092 0.044173297 2.0917346 -1.3299005 1.7110927 0.33873644 1.6830686
0.117073715 -1.4277692 1.6211011 0.1472558 0.6049229 0.57113445 -0.11545311 0.88402194
3.4489694 2.8321822 0.7383996 1.4814751 0.039319914 0.5493236 1.7805353 0.2107182
0.09251408 0.055668056 0.056971192 -0.031551525 -0.08277385 0.053759873 -0.08443119 0.038930386
-0.005005166 -0.08925685 -0.098640576 -0.04108019 -0.123104006 -0.049530253 -0.117752016 -0.122753486
-0.019671947 0.04047136 0.08287765 0.07897885 0.083856136 0.00533624 -0.033697173 -0.09436044
0.07822101 0.096524805 -0.05601035 -0.11579314 -0.08778098 0.100416616 0.0050701797 -0.022461653
-0.08094245 -0.049387813 0.04792565 0.045647204 0.0646752 -0.038867325 -0.076154366 0.11588667
0.0070289373 -0.034166887 0.11246456 0.119861245 0.009933978 -0.023937583 0.042176962 -0.08810967
-0.08590366 0.06110637 0.047616795 0.021654248 0.051477715 0.107622296 -0.0151132345 -0.046147496
-0.09468882 0.10200788 -0.011990175 -0.03902553 -0.02179946 0.019317359 0.07364924 -0.0040908456
00000000: 8359 92bf 2239 d13f 0c97 c93e cd50 91bf
00000010: bb00 ed3f 4d60 163f e370 013f 0b95 c73f
00000020: 9b57 073e 6fa1 04c0 5449 63bf 6469 91bf
00000030: cc7a 1e3f 3716 9d3f ca65 87bd 23e7 123f
00000040: 2f3e 0c40 dc50 b03d 41c9 70be 6158 15c0
00000050: cbfd 4abd 6820 07c0 0ff5 0d3f ddc9 d8be
00000060: bd44 403f 68ef 0d3f c11a 5a3f c782 25bf
00000070: b59f ed3e 95a9 87bd 5a1b d3bf f1cf 1fbe
00000080: f028 47bf 881f 273f 49c7 8a3f bf56 cb3b
00000090: 4f33 f6bd 97c4 fc3f 596d 4d3c ddec e13e
000000a0: c6e6 d23f 6082 733e 9f8f f9bf 0a95 36bf
000000b0: 55e5 7bbf 1073 fb3e edc2 ef3e 0e5e 113d
000000c0: e4c2 ef3e 43fb e83f b8f0 403d c78d 0b3f
000000d0: ab0e 4a40 9fe0 0f40 fcc0 2abc 9f01 ed3f
000000e0: 70cf 0cbe 3f9d 063f df11 1840 deed 143e
000000f0: fd93 2b3e 0871 5ebe ed87 edbe 49ac c9bf
00000100: 9c35 dc3f 466b 423f 6029 50bf 8a6d d9bf
00000110: e53f 31bf 6459 c2bf dbf4 c4bf 7a02 89bf
00000120: 5e4c f6bf c791 efbe 917e 8ebf 8c8e 623f
00000130: bf55 ca3f 9a79 3f3e fe0c f43e 2046 2740
00000140: 6d96 653e d158 1d3f 7336 873f 90a3 0dbe
00000150: 797e 183f c090 ea3f 85c3 b33e bbf3 b8bf
00000160: 54ef ec3f 26f2 e63e 7e81 4640 2bb0 9a40
00000170: 4623 7940 71a6 fd3e 4bc3 1b3f a082 b43f
00000180: 3748 5540 56d2 c8bf ea75 cd3f 45d8 233e
00000190: 741b e43f 09e4 383c 9494 c63e 7cc6 943e
000001a0: 60ff 0b3d 1c04 de3e 249f d23f ae48 b03e
000001b0: ce3f 8dbf e8c9 9cbf c532 7bbf cdb8 cabf
000001c0: c907 a2bf af2c 71bf 10f4 3f3c 2658 f03f
000001d0: 9e68 913d cf00 d9bf a825 2d40 cf74 b73f
000001e0: 74eb 99bf 62d7 e13f a80b b83e e239 05be
000001f0: 3df7 94be aa30 fbbe 2a53 133f 78d5 2440
00000200: 830a 933e 21cd 36bf ea00 e1bf d043 25bf
00000210: 2de1 473f ccde 2040 34f4 b33e 6061 16bf
00000220: f6c0 14bf 1aed ffbe 6667 1440 ea4c 5b40
00000230: ec4a 3a40 71ff 0640 adc4 5240 0e3d 4040
00000240: 98bd 2d40 c270 8340 0b07 3d40 374c 5140
00000250: aa8a 7c40 73b7 3240 4b32 1d3f 736a 0c40
00000260: 8f62 6a3e 621e bcbf 7cd2 ff3f b397 003f
00000270: a227 82bf 6995 b73f 3ea3 183f 35e5 1740
00000280: 716b 3c40 c755 3e40 70ab a63e 5bef 6e40
00000290: fe6a 0940 c17c ccbf 1da0 a1bf d5a7 9cbf
000002a0: 7be5 7dbf ab4b 903f 0fef 343d fbde 0540
000002b0: 2e3a aabf 1605 db3f dd6e ad3e cb6e d73f
000002c0: 58c4 ef3d 24c1 b6bf 3e80 cf3f 39ca 163e
000002d0: 3adc 1a3f de35 123f ae72 ecbd 434f 623f
000002e0: eabb 5c40 7942 3540 c207 3d3f faa0 bd3f
000002f0: eb0d 213d 79a0 0c3f 95e8 e33f 83c6 573e
00000300: 0678 bd3d 3004 643d a05a 693d 2c3c 01bd
00000310: 5685 a9bd 5033 5c3d 42ea acbd 7875 1f3d
00000320: 6002 a4bb 4ccc b6bd 1204 cabd b443 28bd
00000330: f41d fcbd 3ce0 4abd f827 f1bd 2e66 fbbd
00000340: 1027 a1bc 4cc5 253d c2bb a93d aabf a13d
00000350: c4bc ab3d a0db ae3b 0c06 0abd 0c40 c1bd
00000360: 5632 a03d ccae c53d 1c6b 65bd f424 edbd
00000370: 84c6 b3bd 3aa7 cd3d c023 a63b 8001 b8bc
00000380: 28c5 a5bd e04a 4abd b04d 443d 90f8 3a3d
00000390: 6e74 843d 5833 1fbd d2f6 9bbd fe55 ed3d
000003a0: 0053 e63b 94f2 0bbd d253 e63d d079 f53d
000003b0: 20c2 223c c018 c4bc c0c1 2c3d d872 b4bd
000003c0: 42ee afbd ac4a 7a3d d409 433d 4064 b13c
000003d0: 4cda 523d 1469 dc3d 809d 77bc 2805 3dbd
000003e0: 36ec c1bd 82e9 d03d 7072 44bc 3cd9 1fbd
000003f0: c894 b2bc 703f 9e3c 6ad5 963d 800c 86bb

lstm.weight_hh_l0 f4 [256, 64]
0.040498912 0.10825738 -0.0016021132 -0.027020246 0.02225393 -0.037927866 0.015329868 -0.009114459
0.009983242 0.049765587 0.11578493 -0.03383474 0.08487108 0.11207189 0.04608208 0.08185233
-0.07739714 -0.09865025 0.06439036 -0.092117205 0.11010991 0.036416426 0.08063789 0.028948694
0.019486234 -0.052434534 -0.039635196 -0.120918304 -0.08044867 0.08718662 0.11742236 -0.08405472
-0.0102007985 -0.09234437 -0.11156465 0.096335545 0.104354605 -0.023043111 -0.053420052 -0.095305234
-0.030159876 -0.037017077 0.03811486 0.063440636 0.10040699 0.042254567 0.034182668 0.035584077
0.03836508 -0.070260495 -0.1091028 -0.12398709 -0.023313835 0.10377903 0.09072557 -0.08831623
0.029992342 -0.026891217 -0.07003695 0.08390631 0.082912326 0.013820574 -0.069865555 0.104433596
-0.060223415 -0.11133145 0.054546878 -0.10830285 -0.12308006 0.07028535 0.05174333 -0.08468473
-0.0323209 -0.122870356 0.08907354 0.102470234 0.06477256 0.0425006 0.11426322 -0.114234015
0.05146134 0.041278154 -0.07605104 0.115721166 0.088001 0.06084594 0.054932192 -0.08899242
0.070596725 0.10981856 -0.010426715 0.11130394 0.031631023 0.058045506 -0.10399705 0.0006759167
0.0440778 0.07979077 -0.012568444 -0.087188855 0.0222819 0.10162076 0.011369839 -0.016522437
0.055352136 -0.100888416 0.061259523 -0.077534735 0.02592951 -0.009646565 0.04612446 0.05794698
0.0076089352 0.10598642 0.07212059 -0.033195347 0.00069467723 -0.124012366 -0.0032521784 -0.044574082
-0.12126696 0.05632688 0.06819393 -0.053101674 0.1192576 0.091389075 -0.0809533 0.11244778
-0.040334076 0.0465073 0.103113875 -0.006624028 -0.038932785 -0.040311426 0.032440692 -0.02127701
0.11219275 -0.06339063 -0.10332014 0.12331097 -0.014698967 -0.09094009 -0.07740019 -0.03510058
0.119189754 0.06590976 0.11679712 -0.11940861 -0.09688474 -0.029700726 -0.042377144 -0.04184659
0.024755388 -0.09139174 -0.108068675 -0.009030744 -0.028062612 0.07674232 0.10291037 0.067248315
-0.044804424 0.016463235 0.027524501 0.10930456 -0.018625021 0.08929904 0.043822244 -0.022859126
-0.0028542727 -0.0011383593 0.035131603 0.0250853 -0.0047857165 -0.07554868 0.073119685 -0.00048328936
-0.10452141 0.089657575 -0.0024314672 0.05283743 0.013035864 0.10322727 -0.015742928 0.089101315
0.029983416 0.08295822 0.026702449 0.017428175 -0.05232373 -0.06825699 0.11555831 0.08864382
-0.03371805 -0.024533406 -0.11835955 -0.033922017 0.059293583 -0.07236108 0.037118226 0.01135309
-0.08653566 0.07439534 -0.0074433833 -0.108145475 -0.017285198 0.09288715 0.0084076375 0.033190444
-0.04562378 -0.062202275 0.120340586 0.010071188 0.01639697 -0.050514713 0.1234031 -0.06154692
-0.03224626 -0.059125826 -0.04400581 -0.009546801 0.06091012 0.0109297335 0.084482566 0.056903407
0.0733688 0.115637705 0.10097532 0.028964356 -0.0722519 0.0698524 0.063764706 0.0025382787
0.047353804 0.106921345 0.014880225 -0.06822932 -0.03232248 -0.022719055 0.08857623 0.112902924
0.0038664788 -0.052663207 -0.064919084 0.12417157 0.061568275 0.03141904 0.08650352 -0.101512164
0.022007585 0.0061680973 0.09994121 -0.09232262 -0.09967977 -0.11623882 0.09483439 -0.09231867
00000000: 30e2 253d 0cb6 dd3d 00fe d1ba 9059 ddbc
00000010: e04d b63c 405a 1bbd 202a 7b3c d054 15bc
00000020: c090 233c 00d7 4b3d a620 ed3d 4c96 0abd
00000030: e4d0 ad3d f285 e53d 90c0 3c3d 32a2 a73d
00000040: 6482 9ebd 2409 cabd 18df 833d f2a7 bcbd
00000050: 4e81 e13d 6429 153d 7a25 a53d d025 ed3c
00000060: 98a1 9f3c 98c5 56bd 8458 22bd 04a4 f7bd
00000070: 46c2 a4bd e68e b23d 227b f03d e224 acbd
00000080: 4021 27bc 0c1f bdbd 027c e4bd 924b c53d
00000090: deb7 d53d e8c4 bcbc fcce 5abd 642f c3bd
000000a0: d811 f7bc 389f 17bd 541e 1c3d 2aed 813d
000000b0: 2ea2 cd3d 2013 2d3d 2003 0c3d 9cc0 113d
000000c0: b424 1d3d bce4 8fbd 4a71 dfbd f2ec fdbd
000000d0: a8fc bebc 1a8a d43d 54ce b93d 24df b4bd
000000e0: 80b2 f53c f84a dcbc 886f 8fbd 12d7 ab3d
000000f0: f0cd a93d b06f 623c ac15 8fbd 48e1 d53d
00000100: d4ac 76bd be01 e4bd 8c6c 5f3d e2cd ddbd
00000110: 6611 fcbd c4f1 8f3d d0f0 533d 306f adbd
00000120: ec62 04bd 74a3 fbbd 306c b63d eadb d13d
00000130: 7aa7 843d 1c15 2e3d d602 ea3d 86f3 e9bd
00000140: 20c9 523d 4813 293d a6c0 9bbd 38ff ec3d
00000150: de39 b43d 9839 793d 9400 613d a841 b6bd
00000160: 0495 903d 8ee8 e03d d0d4 2abc 52f3 e33d
00000170: 888f 013d 20c1 6d3d 68fc d4bd 0030 313a
00000180: ec8a 343d 5869 a33d e0eb 4dbc 1290 b2bd
00000190: 8888 b63c 8c1e d03d 9048 3a3c 105a 87bc
000001a0: ecb8 623d 969e cebd 44eb 7a3d 88ca 9ebd
000001b0: 206a d43c a00c 1ebc 00ed 3c3d d059 6d3d
000001c0: 6054 f93b 680f d93d f6b3 933d d8f7 07bd
000001d0: 001b 363a 32fa fdbd 8022 55bb 5093 36bd
000001e0: d05a f8bd 04b7 663d 42a9 8b3d 2481 59bd
000001f0: 543d f43d 322a bb3d d8ca a5bd 064b e63d
00000200: 5835 25bd 707e 3e3d 5e2d d33d 600e d9bb
00000210: fc77 1fbd 981d 25bd 88e0 043d 204d aebc
00000220: 50c5 e53d f2d2 81bd 8299 d3bd 768a fc3d
00000230: f0d3 70bc cc3e babd fe83 9ebd a0c5 0fbd
00000240: c219 f43d b2fb 863d 5433 ef3d 808c f4bd
00000250: 826b c6bd f04e f3bc a893 2dbd 5467 2bbd
00000260: d0cb ca3c 982b bbbd 1c53 ddbd b0f5 13bc
00000270: 90e3 e5bc 142b 9d3d acc2 d23d 7cb9 893d
00000280: d884 37bd e8dd 863c 107b e13c 12db df3d
00000290: 8093 98bc 6ae2 b63d f47e 333d 1043 bbbc
000002a0: c00e 3bbb 0035 95ba 28e6 0f3d b07f cd3c
000002b0: 80d1 9cbb 44b9 9abd c6bf 953d 0062 fdb9
000002c0: 520f d6bd 649e b73d 4059 1fbb 106c 583d
000002d0: 6094 553c d268 d33d 50f7 80bc c07a b63d
000002e0: c89f f53c 00e6 a93d 18bf da3c 88c5 8e3c
000002f0: 6851 56bd 52ca 8bbd d6a9 ec3d e48a b53d
00000300: f01b 0abd 48fa c8bc 7e66 f2bd d0f1 0abd
00000310: d4dd 723d 0c32 94bd 4809 183d 5002 3a3c
00000320: 9c39 b1bd 965c 983d a0e7 f3bb 607b ddbd
00000330: b099 8dbc 9e3b be3d 30c0 093c b4f2 073d
00000340: 00e0 3abd d0c7 7ebd 2075 f63d a001 253c
00000350: f052 863c 84e8 4ebd c4ba fc3d a018 7cbd
00000360: a814 04bd ec2d 72bd 703f 34bd 306a 1cbc
00000370: e47c 793d a012 333c 3205 ad3d 8c13 693d
00000380: 6242 963d 76d3 ec3d 26cc ce3d a846 ed3c
00000390: cef8 93bd c60e 8f3d 1297 823d 4059 263b
000003a0: 10f6 413d 94f9 da3d 30cc 733c d0bb 8bbd
000003b0: 9464 04bd 501d babc 7467 b53d a639 e73d
000003c0: c064 7d3b 60b5 57bd 4cf4 84bd aa4d fe3d
000003d0: 042f 7c3d 40b1 003d c228 b13d 9ce5 cfbd
000003e0: 4049 b43c c01d ca3b faad cc3d a413 bdbd
000003f0: e824 ccbd 9e0e eebd 8838 c23d 9211 bdbd

lstm.bias_ih_l0 f4 [256]
-0.6824234 -0.625373 0.038173765 -1.8487666 0.04506927 0.030230911 0.41581437 -1.288602
0.3816517 -0.64741856 -1.4949324 0.35627645 -0.47602418 -0.23149 -1.5929977 0.081977844
-0.10220531 0.22576205 -0.35978797 0.143217 -0.23315564 -0.95266795 -0.6033427 -1.6434138
-1.3827574 0.29361352 0.09407792 0.13790311 0.109440394 -0.74507725 2.7139666 0.14771925
2.6582744 -0.3754992 0.06783799 -0.016657604 -1.0734198 -1.6790408 -0.60964173 -0.60052377
-0.65787345 -0.23218508 0.066781975 -0.63780576 0.1593171 -0.5147577 1.4275804 1.3104736
1.9217993 2.3520026 0.0067187883 -0.68687665 -0.65792406 1.3548846 0.057235382 -1.1660265
-0.635956 2.2703452 -0.18484575 -0.56326157 0.16719438 0.5757547 0.21372497 0.046709456
-0.034355313 0.08512668 0.12224938 0.06121923 0.108442634 -0.06279133 0.0899467 0.048968703
-0.11587088 -0.103882864 -0.030399278 0.026076078 -0.09568213 -0.009774223 -0.10643612 -0.082215935
-0.0155631155 0.048083305 0.10142389 -0.04414141 0.10008864 0.0024071634 -0.019803062 0.0077509284
-0.036978513 0.07234813 0.034320384 -0.11873959 -0.07122174 -0.00043530762 -0.05667436 0.121159196
-0.02846311 -0.116327226 -0.00402537 0.026661009 0.075078085 0.11886853 -0.06323029 -0.09397189
0.01811567 0.05470927 -0.110868245 0.07476051 0.009280473 0.08131167 0.09553078 -0.082620874
0.086866245 -0.010586426 -0.0738661 0.09437887 -0.050166637 -0.11822216 -0.05934529 0.02621755
0.08407207 0.10304168 -0.013337761 0.09269729 -0.10613641 0.021444589 -0.11027214 0.077512145
-0.054496188 -0.035889797 0.07331368 -0.015636433 -0.14634627 -0.10636709 -0.24627534 0.018844076
0.16700597 0.15860988 0.012253531 0.24759124 -0.11106168 -0.13680829 -0.11634527 -0.18394792
-0.18269055 0.009771678 0.08853503 0.062207695 -0.21338221 -0.004411563 -0.16624625 0.056810364
-0.036707275 -0.1880313 0.14433219 -0.104943335 -0.12929949 0.00809253 0.08987023 -0.124441475
0.20598243 -0.11007689 -0.25614908 0.0065845405 0.0966074 0.07186089 -0.12262442 0.049958315
0.043127976 -0.18917507 -0.006156898 -0.17527142 -0.040765487 0.22455864 0.033728898 -0.039296534
0.097467385 -0.14057544 0.059377503 0.043051243 0.10156359 0.013295349 0.029802836 0.11290444
0.10674099 -0.3597531 0.01950072 0.12163265 -0.18432234 -0.039968632 -0.25211006 0.1474946
-0.6192158 -0.50617385 -0.1379287 -1.7219819 0.040616717 -0.0016100861 0.41757438 -1.4517142
0.47086564 -0.7112151 -1.4321227 0.20238663 -0.33655193 -0.22811589 -1.4616623 0.210909
-0.12008682 0.30417976 -0.345235 -0.027418993 -0.21669333 -0.7983972 -0.6016362 -1.5159483
-1.3800203 0.4526269 -0.09428525 0.07454545 0.24470137 -0.726854 2.6393077 0.073835574
2.6226363 -0.1966574 0.07448933 0.025360681 -1.1603385 -1.5998312 -0.45984983 -0.5868278
-0.5224081 -0.20894973 -0.0518341 -0.588272 0.22845224 -0.32677972 1.3361453 1.2185824
2.125227 2.3252072 0.1653437 -0.6457803 -0.6624019 1.3564425 0.19164592 -1.3462253
-0.64936984 2.236748 -0.024925658 -0.5594836 0.25260755 0.56584245 0.32936335 0.08752905
00000000: 4db3 2ebf 7218 20bf 185c 1c3d 62a4 ecbf
00000010: 8e9a 383d d1a6 f73c 9fe5 d43e e9f0 a4bf
00000020: da67 c33e 39bd 25bf f259 bfbf de69 b63e
00000030: 71b9 f3be b70b 6dbe 59e7 cbbf 00e4 a73d
00000040: 0451 d1bd 2b2e 673e 2136 b8be 7aa7 123e
00000050: 5ac0 6ebe 0ce2 73bf ab74 1abf 625b d2bf
00000060: 32fe b0bf 8354 963e edab c03d 7936 0d3e
00000070: 4922 e03d 62bd 3ebf a1b1 2d40 b743 173e
00000080: 2b21 2a40 6e41 c0be a5ee 8a3d 8775 88bc
00000090: d265 89bf cfea d6bf 7b11 1cbf edbb 19bf
000000a0: 656a 28bf edc1 6dbe fdc4 883d 3d47 23bf
000000b0: 0624 233e 29c7 03bf f4ba b63f 99bd a73f
000000c0: 85fd f53f 3687 1640 4829 dc3b 26d7 2fbf
000000d0: b66d 28bf dc6c ad3f a66f 6a3d 5b40 95bf
000000e0: 03ce 22bf 564d 1140 3448 3dbe e931 10bf
000000f0: 0135 2b3e a964 133f b8da 5a3e 6a52 3f3d
00000100: 28b8 0cbd e656 ae3d e25d fa3d 04c1 7a3d
00000110: 2c17 de3d be98 80bd fa35 b83d 6893 483d
00000120: b64d edbd 8ac0 d4bd e807 f9bc 809d d53c
00000130: fef4 c3bd 1024 20bc 2efb d9bd d460 a8bd
00000140: 70fc 7ebc 00f3 443d 54b7 cf3d a0cd 34bd
00000150: 46fb cc3d 80c1 1d3b 083a a2bc 80fb fd3b
00000160: c876 17bd 422b 943d 8893 0c3d be2d f3bd
00000170: b4dc 91bd 003a e4b9 6023 68bd 5022 f83d
00000180: 782b e9bc f83c eebd 40e7 83bb 3068 da3c
00000190: 8ac2 993d 5871 f33d e27e 81bd 5674 c0bd
000001a0: 5067 943c d416 603d e40e e3bd 0a1c 993d
000001b0: 200d 183c bc86 a63d a4a5 c33d 2235 a9bd
000001c0: eee6 b13d b072 2dbc 1c47 97bd b649 c13d
000001d0: 887b 4dbd 761e f2bd 0c14 73bd 30c6 d63c
000001e0: fa2d ac3d 8407 d33d a086 5abc 14d8 bd3d
000001f0: 0c5e d9bd 90ac af3c 5cd6 e1bd b0be 9e3d
00000200: 6537 5fbd 2e01 13bd 7c25 963d fa17 80bc
00000210: ccdb 15be fdd6 d9bd 9a2f 7cbe e45e 9a3c
00000220: 9d03 2b3e a16a 223e 09c3 483c 8f88 7d3e
00000230: 4e74 e3bd 7917 0cbe 6e46 eebd d85c 3cbe
00000240: 3b13 3bbe 6319 203c db51 b53d 7fcd 7e3d
00000250: de80 5abe df8e 90bb 753c 2abe fcb1 683d
00000260: 5e5a 16bd 478b 40be d1cb 133e 88ec d6bd
00000270: 1667 04be 8896 043c e20d b83d 2cdb febd
00000280: 0fed 523e fe6f e1bd f925 83be 21c3 d73b
00000290: 1ada c53d cd2b 933d 8322 fbbd 17a1 4c3d
000002a0: f6a6 303d 1cb7 41be cebf c9bb 5a7a 33be
000002b0: b6f9 26bd b3f2 653e 5027 0a3d 67f5 20bd
000002c0: fb9c c73d 02f3 0fbe d335 733d 8056 303d
000002d0: 9200 d03d bcd4 593c 1425 f43c 713a e73d
000002e0: 059b da3d 8f31 b8be f9bf 9f3c 8a1a f93d
000002f0: ffbe 3cbe 26b6 23bd 9214 81be d308 173e
00000300: ed84 1ebf 9c94 01bf 2e3d 0dbe e769 dcbf
00000310: b75d 263d 8609 d3ba 4fcc d53e c5d1 b9bf
00000320: 4d15 f13e 3112 36bf cc4f b7bf 713e 4f3e
00000330: 8950 acbe 3697 69be c017 bbbf 87f8 573e
00000340: 14f0 f5bd 73bd 9b3e a4c2 b0be cc9d e0bc
00000350: dbe4 5dbe c263 4cbf d404 1abf 980a c2bf
00000360: 81a4 b0bf b7be e73e a018 c1bd 49ab 983d
00000370: ff92 7a3e 1b13 3abf 6bea 2840 1b37 973d
00000380: 46d9 2740 8f60 49be dd8d 983d 34c1 cf3c
00000390: f985 94bf 45c7 ccbf 7071 ebbe 593a 16bf
000003a0: 8abc 05bf ebf6 55be fe4f 54bd fe98 16bf
000003b0: 62ef 693e ac4f a7be cf06 ab3f 82fa 9b3f
000003c0: b803 0840 32d0 1440 dc4f 293e dc51 25bf
000003d0: 2c93 29bf e89f ad3f d43e 443e 1c51 acbf
000003e0: 1a3d 26bf e126 0f40 e530 ccbc 513a 0fbf
000003f0: c755 813e 0ddb 103f 50a2 a83e 6e42 b33d

lstm.bias_hh_l0 f4 [256]
-0.6149251 -0.5759845 0.045609914 -1.8308821 0.22237907 -0.048771016 0.34989443 -1.3034178
0.3600977 -0.5662455 -1.4880121 0.2815625 -0.36049607 -0.12701003 -1.4469393 0.28303885
-0.08826858 0.37815243 -0.4441791 0.033027187 -0.13218608 -0.85517305 -0.5656584 -1.4060054
-1.2610183 0.30556825 0.12837008 0.030789958 0.096393175 -0.6256858 2.619107 0.07274743
2.7638972 -0.3062997 0.007646485 0.045813337 -1.0644519 -1.6010505 -0.44563845 -0.6940908
-0.6476361 -0.3112861 0.1412831 -0.69650096 0.16789278 -0.399072 1.3762417 1.3300921
1.9679188 2.3505516 0.07973274 -0.73759645 -0.5503732 1.209589 0.2827184 -1.3368124
-0.7749961 2.1663136 -0.16904873 -0.77320296 0.24638425 0.74001473 0.2230233 0.2349288
-0.08092058 -0.09749989 -0.075014755 0.031516105 -0.071283385 0.018714964 0.06966101 -0.027632028
0.025415644 -0.073359594 0.12159386 -0.12491277 -0.06636213 -0.047425658 -0.05642651 0.07558367
-0.0039393604 -0.012830913 -0.057625726 -0.11722852 -0.033778653 -0.1013152 0.047771692 -0.0060991496
0.10102965 -0.052985623 -0.057057664 -0.022209764 0.0486556 0.113138035 -0.06733802 -0.11905411
0.032923862 0.11067614 -0.028491423 0.01034078 0.113234594 -0.118937224 -0.11155923 0.08324313
-0.034191802 0.10607472 -0.0163244 -0.05729784 -0.08786625 -0.06590666 0.03127666 0.001365602
-0.08900042 -0.058028907 0.08579114 0.09659092 0.10172944 -0.04459901 -0.01917404 0.04109776
0.11074644 0.07403968 0.03178957 0.11192553 0.040245935 -0.01288572 0.07809818 0.06267001
0.1279444 -0.056129538 0.18815978 0.024839917 -0.27045688 -0.045548603 -0.26348355 0.033417754
0.032453604 0.08513301 -0.06476913 0.16567501 -0.15524139 -0.0133821415 0.054777108 -0.17206225
0.042782128 -0.026236642 0.08406637 0.05690563 -0.16192108 -0.028466415 -0.17449741 -0.060411427
-0.04098749 -0.22639431 -0.020940999 -0.29595768 -0.083411224 0.037363015 0.061966695 -0.052094784
0.3381595 -0.088545635 -0.08462312 0.14084506 0.09204973 -0.06859728 -0.12115192 -0.019617004
0.02281662 -0.15554512 -0.097609706 -0.22197068 -0.062132098 0.03850694 0.056833375 -0.01403237
0.07199157 -0.028007068 0.04383266 -0.07800358 0.028589685 -0.08791907 -0.0011850043 -0.01643281
0.04095888 -0.17938393 -0.19055176 -0.06070497 -0.19099815 0.056190953 -0.14211605 0.066095546
-0.5856618 -0.4416194 0.10508153 -1.84734 0.22668216 -0.10919126 0.32375398 -1.4651521
0.5070796 -0.5091427 -1.4631813 0.2300779 -0.39401254 -0.06209729 -1.6290739 0.19290937
-0.021855945 0.3762454 -0.4162107 0.15190305 -0.098115 -0.8805477 -0.561362 -1.4246042
-1.3286904 0.3912005 0.12691335 0.24289615 0.22263561 -0.6374783 2.6448953 0.15252085
2.7345657 -0.21266092 -0.09661815 0.031790353 -1.0929052 -1.6875373 -0.32487458 -0.5687285
-0.6900767 -0.1965821 -0.051821627 -0.6155657 0.34228817 -0.5373042 1.3222517 1.1160116
1.8942425 2.4844575 0.11823022 -0.54476047 -0.67912126 1.2267003 0.11848005 -1.1655164
-0.80711246 2.1619208 -0.073579624 -0.62452346 0.26902857 0.5256234 0.18195279 0.053447407
00000000: bb6b 1dbf b873 13bf 76d1 3a3d 585a eabf
00000010: 57b7 633e 1ec4 47bd 5d25 b33e 65d6 a6bf
00000020: ba5e b83e 77f5 10bf 2e77 bebf f628 903e
00000030: f192 b8be eb0e 02be 4f35 b9bf 78ea 903e
00000040: 28c6 b4bd 329d c13e 716b e3be 8447 073d
00000050: ca5b 07be 9fec 5abf fdce 10bf fcf7 b3bf
00000060: 0c69 a1bf 7173 9c3e 7273 033e 393b fc3c
00000070: c969 c53d f22c 20bf 739f 2740 9bfc 943d
00000080: b1e3 3040 50d3 9cbe 5e8f fa3b c4a6 3b3d
00000090: f63f 88bf 39ef ccbf b92a e4be efaf 31bf
000000a0: 7bcb 25bf e460 9fbe 84ac 103e e34d 32bf
000000b0: 16ec 2b3e 2a53 ccbe b028 b03f 7540 aa3f
000000c0: c3e4 fb3f 706f 1640 eb4a a33d 1fd3 3cbf
000000d0: 42e5 0cbf d0d3 9a3f 77c0 903e ab1c abbf
000000e0: 2566 46bf e2a4 0a40 1c1b 2dbe a1f0 45bf
000000f0: 274c 7c3e 9b71 3d3f 3860 643e 2d91 703e
00000100: b0b9 a5bd 06ae c7bd 56a1 99bd 0817 013d
00000110: 06fd 91bd 2050 993c 6eaa 8e3d 905c e2bc
00000120: 7834 d03c 8e3d 96bd 3406 f93d 44d2 ffbd
00000130: dee8 87bd 6841 42bd 7c1f 67bd 9ccb 9a3d
00000140: c015 81bb c038 52bc f408 6cbd 8215 f0bd
00000150: 7c5b 0abd 587e cfbd 40ac 433d 60db c7bb
00000160: a2e8 ce3d 7407 59bd 4cb5 69bd 40f1 b5bc
00000170: 184b 473d eab4 e73d 84e8 89bd a4d2 f3bd
00000180: 2cdb 063d 2caa e23d d866 e9bc 606c 293c
00000190: 8ae7 e73d 5c95 f3bd 2a79 e4bd 607b aa3d
000001a0: b40c 0cbd b43d d93d c0ba 85bc 24b1 6abd
000001b0: 38f3 b3bd 12fa 86bd f41b 003d 00fe b23a
000001c0: da45 b6bd b8af 6dbd 44b3 af3d 76d1 c53d
000001d0: 8657 d03d 74ad 36bd e012 9dbc 2056 283d
000001e0: 08cf e23d 1ea2 973d c835 023d 3639 e53d
000001f0: ecd8 243d a01e 53bc f0f1 9f3d 2259 803d
00000200: db03 033e 16e8 65bd f5ac 403e 157d cb3c
00000210: 5379 8abe 2c91 3abd 51e7 86be 0ee1 083d
00000220: 12ee 043d 375a ae3d ada5 84bd b6a6 293e
00000230: 99f7 1ebe c540 5bbc f65d 603d 1631 30be
00000240: 503c 2f3d 3aee d6bc fd2a ac3d e115 693d
00000250: a4ce 25be 6632 e9bc 73af 32be f971 77bd
00000260: 80e2 27bd e9d3 67be 758c abbc c487 97be
00000270: 81d3 aabd f609 193d cad0 7d3d 5761 55bd
00000280: 3e23 ad3e 6a57 b5bd e34e adbd b039 103e
00000290: 9284 bc3d bb7c 8cbd 7f1e f8bd d7b3 a0bc
000002a0: ece9 ba3c 3847 1fbe 99e7 c7bd 484c 63be
000002b0: 3a7e 7ebd 74b9 1d3d 1dca 683d 07e8 65bc
000002c0: 5170 933d 146f e5bc e089 333d 57c0 9fbd
000002d0: ea34 ea3c ea0e b4bd 2552 9bba 1a9e 86bc
000002e0: 80c4 273d 6cb0 37be 0020 43be c6a5 78bd
000002f0: 0595 43be 7c28 663d df86 11be 1a5d 873d
00000300: efed 15bf f01b e2be fc34 d73d a375 ecbf
00000310: 5e1f 683e ab9f dfbd 15c3 a53e 1b8a bbbf
00000320: f8cf 013f 2d57 02bf 8649 bbbf 8b99 6b3e
00000330: 03bc c9be ba59 7ebd 7e85 d0bf 098a 453e
00000340: 3d0b b3bc 3da3 c03e 9219 d5be 798c 1b3e
00000350: 84f0 c8bd 936b 61bf 6cb5 0fbf 6e59 b6bf
00000360: 8712 aabf 6f4b c83e 93f5 013e c5b9 783e
00000370: 97fa 633e c731 23bf f745 2940 6d2e 1c3e
00000380: 2003 2f40 c9c3 59be bddf c5bd 9a36 023d
00000390: 51e4 8bbf 3901 d8bf f655 a6be 3198 11bf
000003a0: dea8 30bf d14c 49be ea42 54bd b795 1dbf
000003b0: 6540 af3e c58c 09bf 8b3f a93f 78d9 8e3f
000003c0: 8a76 f23f 5a01 1f40 b022 f23d 6c75 0bbf
000003d0: e4da 2dbf 8404 9d3f aba5 f23d a42f 95bf
000003e0: ec9e 4ebf e95c 0a40 eab0 96bd c5e0 1fbf
000003f0: 1dbe 893e 418f 063f d551 3a3e abeb 5a3d

lstm.weight_ih_l1 f4 [256, 64]
-1.0832487 1.1744088 -1.2784667 0.49521628 1.0141047 1.1878012 -0.54025126 -0.86651707
-1.3165646 -1.0635031 0.9713182 -0.933499 1.0860144 1.3772177 0.79625654 1.185537
1.4122651 -0.6412842 -0.9464933 -1.3674344 0.9273297 -0.25994596 -0.62109697 -0.531063
0.9441488 1.0125539 -1.4023635 1.0315073 1.28728 -0.90631956 -1.2207636 1.0396326
0.14307438 1.1536826 1.1954844 -1.4479266 0.3770111 0.42071086 1.1896538 -0.47946018
-0.9858832 1.0204761 1.2711359 -0.5029611 1.3529495 -1.0652723 -0.99486315 1.1435417
-1.3739899 1.659011 -1.4794399 0.86430454 -1.1938226 0.9560241 0.5606702 0.37766734
-0.86135477 -0.60720855 1.3372204 -0.7831582 1.0475588 -0.7041935 1.1487767 -1.2303374
-0.29217887 0.48422974 0.15058911 0.055625387 -0.07821292 -0.19950287 0.08282394 -0.3400872
0.09006508 -0.24013801 0.19289288 -0.024024447 -0.048256394 -0.16051959 0.389872 -0.13594326
-0.14126495 -0.3430588 -0.24286401 0.22670425 -0.11357444 -0.38056436 -0.00304509 -0.26489422
0.2461415 -0.063928425 0.2820745 0.055382825 -0.3225086 -0.50272 -0.33634827 -0.11392631
-0.40136024 -0.03089866 -0.07174209 0.10664845 0.09407452 0.23920308 -0.04169859 -0.5709576
-0.37171254 0.095495254 -0.27235097 -0.19423325 -0.3016699 -0.23856136 -0.25106928 0.23513626
0.035100173 0.2931283 0.27244923 0.5642171 -0.39736727 0.26895413 0.3457261 0.2060017
-0.23209195 0.40738997 -0.2348115 -0.55382884 -0.23896934 -0.14624186 -0.08924995 0.21917978
-0.54067135 0.67584187 -0.45041564 0.043547023 0.6887939 0.33004156 0.82221913 -0.36929485
-0.77088886 -0.28147486 0.22271271 -0.5839883 0.24965963 0.12933019 0.36898527 0.47880954
0.21517888 -0.088409305 -0.7696398 -0.24671753 0.7379651 -0.20733258 0.39984095 0.026312735
0.23255062 0.6887713 -0.20841938 0.65893143 0.24855256 -0.3984329 -0.90050256 0.5119765
-1.5448923 0.28399956 0.44226226 -0.20934547 -0.09673884 -0.10827471 0.2672713 -0.2174312
-0.45191982 0.45606235 0.34781134 0.44155315 0.30115303 -0.38930506 -0.8193732 0.71323115
-1.0080559 1.1023295 -0.2256697 0.34638813 -0.396842 0.76106817 0.0444922 0.044508956
-0.33437002 1.3061316 0.21729714 -0.36815023 0.65183 -0.036905907 0.7448149 -0.24314462
-0.25087202 0.41940343 -0.37850225 0.06707116 0.560715 0.25493166 0.6346838 -0.0917905
-0.64603066 -0.24062891 0.18889818 -0.5720364 0.23068893 0.26710555 0.09224405 0.4290228
0.3554929 -0.41307926 -0.2598016 -0.37847552 0.48655167 -0.2667703 0.20515074 0.016592883
0.17525738 0.6593166 -0.1236081 0.6122388 0.38481706 -0.25631928 -1.2993007 0.35466576
-1.5577127 0.18915376 0.36158147 -0.35915715 0.022242393 0.05521887 0.39018106 -0.2563769
-0.2992403 0.41573712 0.3114691 0.22347338 0.3659937 -0.44404802 -1.3531399 1.349471
-1.1883267 1.5171677 -0.41117528 0.18429062 -0.25187877 1.2914842 0.34225512 0.016712686
-0.41161075 1.1902775 0.33231765 -0.33521876 0.6608768 -0.55951977 0.663373 -0.2275573
00000000: e5a7 8abf 0753 963f cca4 a3bf fd8c fd3e
00000010: 2fce 813f df09 983f e84d 0abf 10d4 5dbf
00000020: 3085 a8bf df20 88bf 4fa8 783f caf9 6ebf
00000030: 8502 8b3f ab48 b03f 78d7 4b3f adbf 973f
00000040: 1ac5 b43f 342b 24bf 634d 72bf 1708 afbf
00000050: 7b65 6d3f a317 85be 3600 1fbf bff3 07bf
00000060: bcb3 713f 5e9b 813f a680 b3bf 6e08 843f
00000070: 97c5 a43f 8f04 68bf fb41 9cbf ae12 853f
00000080: 1782 123e dfab 933f a205 993f a955 b9bf
00000090: 9907 c13e 6a67 d73e 9346 983f ce7b f5be
000000a0: d762 7cbf f69e 823f 95b4 a23f 0fc2 00bf
000000b0: 732d ad3f d85a 88bf 5aaf 7ebf 935f 923f
000000c0: e7de afbf 795a d43f 495e bdbf 1043 5d3f
000000d0: 2ecf 98bf ffbd 743f 1588 0f3f 9d5d c13e
000000e0: bf81 5cbf 0572 1bbf 0a2a ab3f 0e7d 48bf
000000f0: 6816 863f 0646 34bf 1d0b 933f b27b 9dbf
00000100: 7898 95be f6ec f73e 0834 1a3e 72d7 633d
00000110: 182e a0bd 7b4a 4cbe 999f a93d e91f aebe
00000120: 0a74 b83d bde6 75be b685 453e ebce c4bc
00000130: 7fa8 45bd 3f5f 24be 4e9d c73e b634 0bbe
00000140: c2a7 10be 67a5 afbe 58b1 78be 2925 683e
00000150: b799 e8bd 55d9 c2be 2290 47bb 37a0 87be
00000160: 840c 7c3e e8ec 82bd 126c 903e 1ad9 623d
00000170: d91f a5be 42b2 00bf d735 acbe 3252 e9bd
00000180: 177f cdbe 301f fdbc 84ed 92bd 816a da3d
00000190: 24aa c03d a7f1 743e 24cc 2abd 472a 12bf
000001a0: 1b51 bebe 0493 c33d 9671 8bbe 15e5 46be
000001b0: 7a74 9abe 6e49 74be 278c 80be 8fc7 703e
000001c0: 33c5 0f3d ea14 963e 777e 8b3e 8870 103f
000001d0: b973 cbbe 5bb4 893e 0303 b13e 1cf2 523e
000001e0: 83a9 6dbe 6b95 d03e 6d72 70be bac7 0dbf
000001f0: 61b4 74be 6dc0 15be aec8 b6bd aa70 603e
00000200: 7069 0abf f903 2d3f e19c e6be 5d5e 323d
00000210: cc54 303f 35fb a83e f47c 523f 3714 bdbe
00000220: f958 45bf 791d 90be cd0e 643e 4280 15bf
00000230: c6a6 7f3e 226f 043e a3eb bc3e 8626 f53e
00000240: da57 5c3e f00f b5bd 1d07 45bf 85a3 7cbe
00000250: 48eb 3c3f fe4e 54be f4b7 cc3e ce8d d73c
00000260: c021 6e3e 5153 303f e46b 55be bbaf 283f
00000270: 9084 7e3e 66ff cbbe 5687 66bf e410 033f
00000280: 08bf c5bf 6468 913e 3370 e23e a95e 56be
00000290: 031f c6bd 22bf ddbd c9d7 883e 49a6 5ebe
000002a0: 0962 e7be 0181 e93e 5414 b23e 4113 e23e
000002b0: bb30 9a3e fe52 c7be 71c2 51bf 5196 363f
000002c0: fa07 81bf 2219 8d3f f515 67be c959 b13e
000002d0: e02e cbbe 5dd5 423f 743d 363d 064f 363d
000002e0: 8c32 abbe 522f a73f 2483 5e3e 307e bcbe
000002f0: 55de 263f a62a 17bd 30ac 3e3f e7fa 78be
00000300: 4c72 80be 0cbc d63e 0ccb c1be 9b5c 893d
00000310: 058b 0f3f 6786 823e a37a 223f a8fc bbbd
00000320: 4462 25bf 6d67 76be 866e 413e fa70 12bf
00000330: b839 6c3e 0fc2 883e 73ea bc3d e0a8 db3e
00000340: 2a03 b63e 207f d3be b704 85be 8bc7 c1be
00000350: 4d1d f93e 1e96 88be 0913 523e cced 873c
00000360: ac76 333e f9c8 283f 3e26 fdbd afbb 1c3f
00000370: be06 c53e 483c 83be 7c4f a6bf c096 b53e
00000380: 2163 c7bf 86b1 413e 3521 b93e 72e3 b7be
00000390: ae35 b63c 2f2d 623d d0c5 c73e d543 83be
000003a0: 0636 99be 7fdb d43e e178 9f3e 35d6 643e
000003b0: 8763 bb3e 435a e3be b033 adbf 77bb ac3f
000003c0: 171b 98bf 8d32 c23f 9185 d2be aeb6 3c3e
000003d0: 41f6 80be 5b4f a53f 103c af3e 0be9 883c
000003e0: a5be d2be 035b 983f 8a25 aa3e cba1 abbe
000003f0: 392f 293f b03c 0fbf d0d2 293f c804 69be

lstm.weight_hh_l1 f4 [256, 64]
-0.056176007 -0.081899434 0.117810786 0.08308685 -0.10936056 -0.07347426 0.010149747 0.12208931
0.033278406 -0.03163773 0.047434583 0.06831241 -0.0713485 -0.11720416 -0.107485056 -0.0967899
-0.09004916 -0.021013677 0.055732563 -0.016168073 0.050267965 -0.08767724 -0.11054593 -0.04892753
0.11388296 -0.07944302 -0.10198495 -0.06600739 -0.08656791 0.116108745 -0.07760745 0.06841372
0.09518409 0.10861927 -0.12067178 -0.096626386 -0.070517 -0.013762295 -0.027417362 0.074047044
-0.09400514 -0.041194394 -0.120684415 -0.007443145 -0.019672692 0.101924986 -0.10467714 -0.028845713
-0.018178195 -0.047274962 -0.118425116 0.09220293 0.08356786 -0.005869463 -0.06242962 -0.004120514
0.00026910007 0.083381474 -0.075908914 0.0042069256 0.06380434 0.056165308 -0.042426586 0.03903681
-0.051943734 -0.07897413 -0.043377638 0.060909927 -0.061986953 -0.066158384 0.036045387 -0.030343369
0.011335924 -0.01777099 0.05024083 -0.12005857 0.023313537 -0.098735586 -0.11475554 0.07855879
-0.106836304 0.12337771 -0.09375554 0.082826495 -0.005356729 0.030693352 0.080087155 -0.06025566
-0.055973902 -0.096863344 -0.10477848 0.122113645 0.047073185 -0.03973335 -0.11356543 0.10093357
0.10224888 -0.04090491 0.0123756975 -0.073709086 -0.038905293 -0.021911263 -0.11214848 0.03928432
-0.09906536 -0.095043376 0.017934844 -0.07717262 0.052614644 -0.12063116 0.057328954 -0.012487382
0.0015325248 -0.09851609 0.10442583 0.09326731 0.051052347 0.09147526 0.084031984 0.0067417473
0.0952691 0.063544676 -0.062062964 0.06908283 -0.11789498 -0.011491358 0.076134846 -0.11065696
-0.07793604 0.12212995 0.0010016412 -0.04002902 -0.11301623 0.04424329 0.0676344 -0.06647509
-0.12120181 0.030811414 0.11403854 -0.11425656 -0.003604114 0.0589343 0.010567367 0.030653313
-0.11187349 0.09991914 0.069538385 0.031718746 -0.0031619817 -0.05951816 0.010216802 -0.012647256
-0.06417264 -0.118907556 -0.035247326 -0.08598994 -0.06572653 -0.073907495 0.049093544 0.07760416
-0.009268478 0.073906645 -0.08189882 -0.11315149 0.082744956 -0.0062292963 -0.07849328 -0.10293527
-0.00056774914 0.033849522 0.019424692 -0.06648451 -0.07221834 -0.09299326 -0.10022625 -0.027650893
0.059853867 -0.12288587 -0.07848136 -0.03399153 -0.11728604 -0.08762422 -0.03887704 -0.046926722
-0.026201144 0.081882045 -0.041564614 -0.06418179 -0.07956438 -0.101242915 -0.041949555 -0.10916194
-0.030559927 0.025011465 0.09322032 -0.020236477 -0.040100127 -0.034746468 -0.047755063 -0.015769497
0.0298969 -0.057713255 -0.011657253 0.022460222 -0.005903706 -0.100958586 -0.00630261 0.08129834
-0.07142869 0.08922526 -0.07663149 0.09177241 -0.012288138 -0.026537925 0.029154927 -0.1130722
-0.120876655 0.057308868 -0.04355465 -0.014837086 -0.04914026 0.09675644 -0.11370252 -0.008399054
-0.07003644 0.015224561 -0.017430216 0.06974314 0.104077026 0.07338831 -0.065122426 0.048738837
0.040631533 -0.06958197 -0.0809384 -0.06020972 0.06026241 0.12485047 0.12303613 0.09178822
0.075221196 -0.052526772 0.09992029 0.07657997 0.077333614 -0.027707249 -0.06380865 0.0092417
0.055329546 0.108081445 -0.06751689 -0.08566573 -0.01460658 -0.00041235983 -0.110154375 -0.09633908
00000000: d018 66bd e4ba a7bd c846 f13d 7029 aa3d
00000010: 6ef8 dfbd ac79 96bd 204b 263c f609 fa3d
00000020: f04e 083d 9096 01bd c44a 423d 60e7 8b3d
00000030: 2a1f 92bd bc08 f0bd 2021 dcbd c839 c6bd
00000040: b26b b8bd e024 acbc d447 643d e872 84bc
00000050: c8e5 4d3d 2090 b3bd e865 e2bd 3c68 48bd
00000060: 783b e93d 06b3 a2bd 7cdd d0bd e22e 87bd
00000070: 844a b1bd 6cca ed3d a8f0 9ebd 7e1c 8c3d
00000080: e0ef c23d c873 de3d c422 f7bd 0ee4 c5bd
00000090: 386b 90bd 407b 61bc 609a e0bc faa5 973d
000000a0: c485 c0bd 74bb 28bd 6429 f7bd a0e5 f3bb
000000b0: a028 a1bc 0cbe d03d f860 d6bd d84d ecbc
000000c0: 70ea 94bc 64a3 41bd de88 f2bd e4d4 bc3d
000000d0: a025 ab3d a054 c0bb 34b6 7fbd 6005 87bb
000000e0: 0016 8d39 e8c3 aa3d 2276 9bbd 40da 893b
000000f0: daab 823d 980d 663d 80c7 2dbd 10e5 1f3d
00000100: f4c2 54bd 30bd a1bd c0ac 31bd b07c 793d
00000110: 08e6 7dbd 0c7e 87bd 54a4 133d a892 f8bc
00000120: 50ba 393c 7894 91bc 54c9 4d3d 44e1 f5bd
00000130: 08fc be3c e235 cabd f404 ebbd 6ee3 a03d
00000140: fecc dabd 74ad fc3d e802 c0bd f0a0 a93d
00000150: 8087 afbb a070 fb3c bc04 a43d a4ce 76bd
00000160: e444 65bd 4a60 c6bd 1a96 d6bd b816 fa3d
00000170: d0cf 403d 70bf 22bd fe94 e8bd 42b6 ce3d
00000180: dc67 d13d e88b 27bd 70c3 4a3c caf4 96bd
00000190: 285b 1fbd 407f b3bc 1aae e5bd 98e8 203d
000001a0: c8e2 cabd 1aa6 c2bd 18ec 923c ae0c 9ebd
000001b0: 7482 573d 780d f7bd c4d1 6a3d e097 4cbc
000001c0: 00df c83a cec2 c9bd 36dd d53d ee02 bf3d
000001d0: 441c 513d 6257 bb3d f618 ac3d e0e9 dc3b
000001e0: 721c c33d b623 823d bc35 7ebd 4c7b 8d3d
000001f0: ec72 f1bd 4046 3cbc 96ec 9b3d 1ea0 e2bd
00000200: ee9c 9fbd 441f fa3d 8049 833a 78f5 23bd
00000210: 0e75 e7bd 7438 353d e883 8a3d 1824 88bd
00000220: a838 f8bd 3868 fc3c 0a8d e93d 58ff e9bd
00000230: 0033 6cbb 1865 713d c022 2d3c a81c fb3c
00000240: ee1d e5bd 68a2 cc3d 246a 8e3d 84eb 013d
00000250: 4039 4fbb 50c9 73bd 6064 273c 7036 4fbc
00000260: f26c 83bd ce85 f3bd 805f 10bd 7e1b b0bd
00000270: a29b 86bd d05c 97bd 5016 493d eeee 9e3d
00000280: d0da 17bc 5e5c 973d 92ba a7bd f8bb e7bd
00000290: 3076 a93d 201f ccbb 16c1 a0bd bacf d2bd
000002a0: 00d5 14ba cca5 0a3d 8820 9f3c 0829 88bd
000002b0: 36e7 93bd 4073 bebd 6c43 cdbd 2084 e2bc
000002c0: 5429 753d 96ab fbbd d6ba a0bd b43a 0bbd
000002d0: aa33 f0bd 5474 b3bd 883d 1fbd 3c36 40bd
000002e0: c8a3 d6bc c6b1 a73d a83f 2abd be71 83bd
000002f0: a6f2 a2bd 7258 cfbd 4cd3 2bbd 4c90 dfbd
00000300: d058 fabc d8e4 cc3c 4cea be3d f8c6 a5bc
00000310: 0840 24bd 5052 0ebd d09a 43bd 082f 81bc
00000320: 58ea f43c bc64 6cbd 10fe 3ebc 80fe b73c
00000330: e073 c1bb 60c3 cebd 2086 cebb be7f a63d
00000340: 3449 92bd bcbb b63d f8f0 9cbd 2cf3 bb3d
00000350: 3054 49bc 1066 d9bc 50d6 ee3c 6692 e7bd
00000360: 2e8e f7bd b4bc 6a3d 5c66 32bd 4017 73bc
00000370: 4c47 49bd 3e28 c63d dedc e8bd 309c 09bc
00000380: 446f 8fbd 7070 793c d0c9 8ebc 7ed5 8e3d
00000390: 5626 d53d 9c4c 963d e85e 85bd 60a2 473d
000003a0: 406d 263d fe80 8ebd 08c3 a5bd 789e 76bd
000003b0: b8d5 763d 9ab1 ff3d 5efa fb3d 76fb bb3d
000003c0: 920d 9a3d 5026 57bd 02a3 cc3d f6d5 9c3d
000003d0: 1661 9e3d 50fa e2bc 1cae 82bd 806a 173c
000003e0: 3ca1 623d ce59 dd3d 4c46 8abd 8471 afbd
000003f0: 7050 6fbc 0032 d8b9 9e98 e1bd 6c4d c5bd

lstm.bias_ih_l1 f4 [256]
0.7094447 -0.26767206 -0.27237615 -0.12597884 0.50198233 -0.63113654 0.31868804 0.83721447
-0.32204688 0.60091215 -0.13310936 -0.50436527 0.48059568 0.28475454 -0.063337274 1.4717944
0.44990712 0.014018077 -0.26511863 0.24356014 0.30363145 0.20249815 0.3291278 1.1730908
0.5049737 0.36099505 0.8083178 -0.22292913 0.0670006 0.36170515 0.09571534 0.1369459
-0.06578207 -0.31804356 -0.82866055 0.19070032 0.3524838 0.30638927 0.5536566 -0.4867238
-0.32735154 -0.13621937 -0.20442578 0.5487231 -0.31170887 0.056454957 -0.50127757 0.46291614
0.6515466 0.029937478 0.33094049 0.2702285 0.41228244 -0.07032749 -0.11524196 -0.046181206
1.0452461 0.68236864 0.18729287 -0.65708405 0.40087712 -0.63189584 -0.036895085 0.3272547
0.10524164 -0.06642538 0.00842151 0.11262183 -0.112281635 0.09297907 0.014777169 0.0024278462
0.118829936 0.01165247 -0.100497976 0.1181943 -0.0664697 0.089560494 -0.08721349 0.0026497245
-0.049222752 0.0031836778 0.08014803 0.010145798 -0.00012977421 0.06547332 0.059276924 8.144975e-05
0.0013871789 -0.06386943 0.04498209 0.01140669 0.079260424 0.083160415 -0.025843993 0.019565925
0.122364804 0.006033644 0.095689565 0.03000316 -0.09583214 -0.050927356 -0.046570435 -0.076345414
0.092677444 -0.05722122 0.12456229 -0.028822139 0.06484869 0.04028088 -0.05121267 0.12163156
-0.09945816 -0.08480826 0.0013702959 0.07181625 0.0834073 0.1221288 -0.071355835 -0.100833625
0.08859059 0.08675736 0.059475675 -0.05886486 0.06936306 0.065714896 0.042917207 0.06798473
0.4957338 -0.09281968 0.1501907 -0.14420916 -0.21056418 -0.01469616 0.0066267704 0.36770982
0.17206421 0.20352766 0.0056756004 0.24286565 -0.15918986 -0.36166784 -0.32544228 -0.20872545
0.29487413 0.13968533 -0.23653245 -0.23736016 -0.22024362 -0.39204523 0.1816887 -0.113577165
0.3062217 -0.17975676 0.38056004 -0.12974583 0.28441647 0.16356988 -0.30853868 -0.33847967
-0.28071544 -0.33545476 -0.021973502 -0.43916684 0.20527203 -0.62321657 -0.23551221 -0.21052381
0.32776946 -0.23244904 0.059671205 -0.37928617 0.22564879 -0.3982123 -0.19461998 -0.12988634
0.3317414 -0.2977498 0.29250607 0.3546949 -0.38680834 0.251437 0.40002292 0.094112866
-0.26520354 0.28353065 -0.64272124 0.14108017 0.44899464 -0.15861411 0.2644386 0.15596816
0.8450614 -0.4365523 -0.24444786 -0.06725501 0.6769651 -0.62503695 0.23642218 0.79122007
-0.27491346 0.6707825 0.00014786451 -0.4523273 0.6004218 0.29731137 0.11771718 1.3235155
0.22054559 0.13579491 -0.119502276 0.0644441 0.43048814 0.015556876 0.39757913 0.98007274
0.71260494 0.1307733 0.7735401 -0.25995275 0.30311075 0.29099134 0.21882169 -0.023767877
0.12694101 -0.35005328 -0.77014244 0.07369319 0.41877648 0.22709066 0.38247117 -0.5295921
-0.26093408 0.24868928 -0.20079868 0.45564312 -0.26666108 0.23684886 -0.545754 0.6513245
0.46706936 0.12611434 0.30098704 0.26757184 0.3600275 0.030534016 0.0633997 -0.16086662
0.9229255 0.45798412 0.030224917 -0.62674993 0.40564772 -0.58816814 -0.1512739 0.55209684
00000000: 2b9e 353f 500c 89be e374 8bbe 9900 01be
00000010: ea81 003f 2a92 21bf 142b a33e b053 563f
00000020: 54e3 a4be 61d5 193f d24d 08be 151e 01bf
00000030: a310 f63e 59cb 913e f9b6 81bd c263 bc3f
00000040: 3a5a e63e 14ac 653c a1bd 87be d467 793e
00000050: 9575 9b3e ad5b 4f3e 7083 a83e d727 963f
00000060: f545 013f 58d4 b83e eaed 4e3f 8947 64be
00000070: 9c37 893d 6b31 b93e 6706 c43d 8c3b 0c3e
00000080: c0b8 86bd 9bd6 a2be 1923 54bf f246 433e
00000090: c278 b43e 0edf 9c3e 70bc 0d3f dd33 f9be
000000a0: 9f9a a7be 177d 0bbe fe54 51be 1e79 0c3f
000000b0: 4e98 9fbe 503d 673d ba53 00bf 5803 ed3e
000000c0: c2cb 263f 713f f53c 0871 a93e 645b 8a3e
000000d0: af16 d33e dc07 90bd fa03 ecbd 8128 3dbd
000000e0: a0ca 853f b6af 2e3f b4c9 3f3e a936 28bf
000000f0: c43f cd3e edc3 21bf 4d1f 17bd ee8d a73e
00000100: ee88 d73d 080a 88bd 60fa 093c 46a6 e63d
00000110: eaf3 e5bd d06b be3d f01b 723c 801c 1f3b
00000120: 1c5d f33d 00ea 3e3c e2d1 cdbd da0f f23d
00000130: 4421 88bd 7e6b b73d fc9c b2bd 00a7 2d3b
00000140: cc9d 49bd 40a5 503b a624 a43d 903a 263c
00000150: 0014 08b9 e016 863d 5ccc 723d 00d0 aa38
00000160: 00d2 b53a facd 82bd 243f 383d 20e3 3a3c
00000170: 4a53 a23d 0250 aa3d c8b6 d3bc b848 a03c
00000180: 669a fa3d e0b5 c53b e4f8 c33d 30c9 f53c
00000190: a443 c4bd 3499 50bd a4c0 3ebd fc5a 9cbd
000001a0: accd bd3d cc60 6abd 841a ff3d 681c ecbc
000001b0: 64cf 843d 90fd 243d 60c4 51bd f819 f93d
000001c0: b8b0 cbbd f4af adbd 809b b33a 6614 933d
000001d0: 72d1 aa3d aa1e fa3d 0223 92bd dc81 cebd
000001e0: fc6e b53d d8ad b13d c49c 733d 481c 71bd
000001f0: 380e 8e3d 8895 863d f4c9 2f3d 943b 8b3d
00000200: d2d0 fd3e 3f18 bebd 97cb 193e 91ab 13be
00000210: 239e 57be 2ac8 70bc 6125 d93b 7644 bc3e
00000220: 9a31 303e 8e69 503e 63fa b93b c6b1 783e
00000230: ab02 23be 872c b9be 5fa0 a6be 20bc 55be
00000240: bef9 963e ac09 0f3e 9035 72be 8b0e 73be
00000250: 8b87 61be 27ba c8be 9a0c 3a3e 259b e8bd
00000260: 17c9 9c3e 2812 38be c4d8 c23e 17dc 04be
00000270: 099f 913e dd7e 273e c8f8 9dbe 354d adbe
00000280: efb9 8fbe bac0 abbe c601 b4bc 7ada e0be
00000290: d532 523e 1f8b 1fbf 1d2a 71be 8e93 57be
000002a0: 66d1 a73e 1f07 6ebe cb69 743d cc31 c2be
000002b0: 7a10 673e 7ce2 cbbe 764a 47be ed00 05be
000002c0: 02da a93e a972 98be 5bc3 953e 929a b53e
000002d0: be0b c6be 5abc 803e cecf cc3e 3fbe c03d
000002e0: c2c8 87be ee2a 913e 6189 24bf 5277 103e
000002f0: a0e2 e53e bd6b 22be 7f64 873e 1eb6 1f3e
00000300: f255 583f c883 dfbe 8a50 7abe ffbc 89bd
00000310: 964d 2d3f 6c02 20bf a818 723e 668d 4a3f
00000320: 75c1 8cbe 67b8 2b3f 140c 1b39 7297 e7be
00000330: 3eb5 193f 3239 983e b415 f13d f568 a93f
00000340: b4d6 613e d20d 0b3e 9cbd f4bd 45fb 833d
00000350: f168 dc3e 44e2 7e3c 7e8f cb3e 0ce6 7a3f
00000360: 476d 363f 70e9 053e b906 463f 8718 85be
00000370: 5531 9b3e d1fc 943e cb12 603e dab4 c2bc
00000380: d3fc 013e 2f3a b3be 0e28 45bf 75ec 963d
00000390: df69 d63e 748a 683e 43d3 c33e 5993 07bf
000003a0: 2799 85be 67a8 7e3e 2b9e 4dbe 0e4a e93e
000003b0: cd87 88be 8288 723e 89b6 0bbf 34bd 263f
000003c0: b723 ef3e 1e24 013e f91a 9a3e 2dff 883e
000003d0: 8655 b83e 7922 fa3c b4d7 813d 38ba 24be
000003e0: d844 6c3f e57c ea3e 3f9a f73c af72 20bf
000003f0: 0fb1 cf3e 3092 16bf 8ce7 1abe 3856 0d3f

lstm.bias_hh_l1 f4 [256]
0.6809332 -0.3597202 -0.20073746 -0.3458067 0.6381087 -0.72898436 0.3404966 0.7873267
-0.45198798 0.48611894 -0.14576292 -0.3376917 0.6952702 0.36579934 0.13420372 1.2969983
0.3030463 0.0884095 -0.17313525 0.11869297 0.30652812 0.10506442 0.3922456 1.0011066
0.5983992 0.21735214 0.7224002 -0.18031867 0.06541965 0.18862364 0.16141774 0.14543752
0.07944994 -0.33082172 -1.0174531 0.09083618 0.20688266 0.14244814 0.44382265 -0.47977665
-0.42853233 0.097815625 -0.08708335 0.497184 -0.31332958 0.21447465 -0.49244514 0.46081144
0.64750886 -0.104988374 0.45495653 0.29181546 0.57952625 -0.08809286 -0.030428555 -0.24716705
1.0487154 0.50221074 0.05733165 -0.79452556 0.3464555 -0.58520764 -0.03518508 0.3072933
-0.120477214 0.12135333 0.026788697 0.08007683 0.008897379 0.012484297 -0.09642872 -0.12043314
-0.0753912 0.041625023 0.023066416 -0.01180473 -0.10987188 0.06604691 0.099732116 -0.10843344
-0.10305557 -0.043662205 0.04065545 0.06641269 0.11589341 -0.007861435 -0.10061458 -0.08903372
0.06638017 -0.05055341 -0.028520063 0.065902025 -0.038575247 -0.07662618 0.027236834 0.12412703
0.11674337 -0.010464042 -0.05708699 0.065240845 0.121451125 0.009369507 0.081786424 0.03821951
-0.08064099 0.02185987 0.07804315 -0.0015790313 0.0033402443 -0.11441676 0.110466704 -0.098151624
0.039561182 0.087822616 0.057260066 0.045925066 -0.06486003 -0.054953873 -0.03440152 0.037801847
-0.025832921 -0.096914425 -0.12382534 -0.12014961 0.108989105 0.011082083 -0.009533808 -0.037645042
0.40533188 -0.2249045 0.24234419 -0.18973808 -0.19948857 0.017015992 0.10984372 0.48162
0.10250678 0.25550583 0.13214219 0.26489833 -0.10560327 -0.46844622 -0.10735622 -0.14340243
0.4004308 0.0110182185 -0.1345307 -0.14146964 -0.12450924 -0.35869607 0.21731699 -0.06289683
0.100837775 -0.19899023 0.32105815 -0.1226719 0.36947533 -0.028602898 -0.33711714 -0.4852163
-0.12667474 -0.2866429 -0.13938738 -0.47774768 0.2747813 -0.5676171 -0.14972211 -0.12949742
0.19986537 -0.18588467 0.21149383 -0.1886776 0.16832206 -0.23494999 -0.26951274 -0.30275917
0.43341178 -0.21097696 0.26131195 0.50598055 -0.42685133 0.19817543 0.2198442 0.042134363
-0.09221358 0.38782704 -0.51080644 0.020407807 0.41240346 -0.13863318 0.30276093 0.09470857
0.76159894 -0.3232584 -0.2655328 -0.17341022 0.7643651 -0.78639543 0.28930253 0.8925847
-0.43287817 0.5153988 -0.08011897 -0.46784645 0.5778465 0.20010203 -0.062845826 1.3501223
0.3551663 0.21126133 -0.024268044 0.007837452 0.26463166 0.09629863 0.46176672 0.99645686
0.6263457 0.27215064 0.8762379 -0.14837405 0.4184185 0.48825303 0.022283882 -0.061795164
0.24938533 -0.30432287 -0.79953873 0.2091104 0.43720266 0.3092883 0.42489633 -0.41113284
-0.26342973 0.0556602 -0.11134991 0.47057188 -0.14752239 0.32274526 -0.54809123 0.572068
0.6104056 0.19160381 0.3100507 0.28511837 0.31196618 0.023539778 0.1004862 -0.048475858
0.9543276 0.65667254 0.13619033 -0.664038 0.2825782 -0.5217273 -0.013248322 0.56224614
00000000: a351 2e3f 3f2d b8be 1f8e 4dbe 930d b1be
00000010: 175b 233f b89e 3abf 9255 ae3e 3e8e 493f
00000020: f86a e7be 95e4 f83e e042 15be ede5 acbe
00000030: 3afd 313f 0d4a bb3e b36c 093e 0a04 a63f
00000040: e228 9b3e 0a10 b53d 5e4a 31be 4d15 f33d
00000050: 41f1 9c3e 042c d73d 6ad4 c83e 4324 803f
00000060: b130 193f 8f91 5e3e 38ef 383f 75a5 38be
00000070: bdfa 853d 8e26 413e b14a 253e 93ed 143e
00000080: a6b6 a23d 7761 a9be e73b 82bf 5208 ba3d
00000090: 0cd9 533e eddd 113e b93c e33e 49a5 f5be
000000a0: 9768 dbbe 8f53 c83d c158 b2bd e78e fe3e
000000b0: bc6c a0be 3e9f 5b3e c521 fcbe 7aef eb3e
000000c0: 24c3 253f 2504 d7bd 10f0 e83e d668 953e
000000d0: d55b 143f 086a b4bd 4e45 f9bc 5c19 7dbe
000000e0: 4e3c 863f e290 003f 98d4 6a3d 0766 4bbf
000000f0: 9e62 b13e 2bd0 15bf 3b1e 10bd 8c55 9d3e
00000100: c2bc f6bd 1888 f83d f873 db3c 52ff a33d
00000110: 50c6 113c f08a 4c3c 6c7c c5bd a6a5 f6bd
00000120: b466 9abd 007f 2a3d c8f5 bc3c a068 41bc
00000130: 8204 e1bd 9a43 873d 5a40 cc3d 5a12 debd
00000140: cc0e d3bd 24d7 32bd 5486 263d 6003 883d
00000150: 8659 ed3d 40cd 00bc 040f cebd 5057 b6bd
00000160: 54f2 873d 1811 4fbd e8a2 e9bc a4f7 863d
00000170: 1401 1ebd 30ee 9cbd c81f df3c 5036 fe3d
00000180: 2617 ef3d 6071 2bbc 0cd4 69bd fe9c 853d
00000190: 5ebb f83d 9082 193c a47f a73d 108c 1c3d
000001a0: 1a27 a5bd 7813 b33c 16d5 9f3d 80f7 ceba
000001b0: 00e8 5a3b 5653 eabd 5e3c e23d b803 c9bd
000001c0: e80a 223d 58dc b33d 8889 6a3d ec1b 3c3d
000001d0: 56d5 84bd 5017 61bd 9ce8 0cbd 1cd6 1a3d
000001e0: 909f d3bc 127b c6bd 2498 fdbd 0011 f6bd
000001f0: ae35 df3d a091 353c b033 1cbc b031 1abd
00000200: a987 cf3e 5e4d 66be 1329 783e b34a 42be
00000210: bb46 4cbe 1f65 8b3c bff5 e03d e696 f63e
00000220: 13ef d13d a9d1 823e 4850 073e c1a0 873e
00000230: 8746 d8bd 2fd8 efbe 94dd dbbd 16d8 12be
00000240: 4405 cd3e c285 343c 6ac2 09be 6bdd 10be
00000250: b3fe febd 03a7 b7be 5888 5e3e 0ed0 80bd
00000260: 0984 ce3d 18c4 4bbe bc61 a43e 683b fbbd
00000270: df2b bd3e a050 eabc 9e9a acbe 456e f8be
00000280: 06b7 01be dcc2 92be 91bb 0ebe 589b f4be
00000290: 22b0 8c3e 5b4f 11bf c150 19be f99a 04be
000002a0: 82a9 4c3e 8d58 3ebe d791 583e b334 41be
000002b0: 9e5c 2c3e bb96 70be 93fd 89be 4003 9bbe
000002c0: 26e8 dd3e 580a 58be aeca 853e f187 013f
000002d0: 428c dabe 80ee 4a3e d71e 613e 1595 2c3d
000002e0: 79da bcbd 4491 c63e 36c4 02bf 462e a73c
000002f0: 8c26 d33e dbf5 0dbe 7b03 9b3e 91f6 c13d
00000300: 26f8 423f 2082 a5be eaf3 87be 7392 31be
00000310: 6ead 433f 3651 49bf 761f 943e 6e80 643f
00000320: 35a2 ddbe 2df1 033f 6a15 a4bd 9289 efbe
00000330: c0ed 133f 8ce7 4c3e 50b5 80bd cfd0 ac3f
00000340: 5bd8 b53e e454 583e c7cd c6bc a868 003c
00000350: cd7d 873e 3738 c53d b06c ec3e cc17 7f3f
00000360: 3158 203f 5457 8b3e 2151 603f 5eef 17be
00000370: f33a d63e 4dfc f93e b08c b63c ed1c 7dbd
00000380: de5e 7f3e 35d0 9bbe 92ae 4cbf 0921 563e
00000390: 07d9 df3e 095b 9e3e 038c d93e 0180 d2be
000003a0: 43e0 86be f3fb 633d 6c0b e4bd ccee f03e
000003b0: 1c10 17be de3e a53e b54f 0cbf 0c73 123f
000003c0: 8b43 1c3f ca33 443e f7be 9e3e 09fb 913e
000003d0: 08ba 9f3e 7ed6 c03c b5cb cd3d 9f8e 46bd
000003e0: d04e 743f b11b 283f 7a75 0b3e 65fe 29bf
000003f0: 17ae 903e ec8f 05bf 7d0f 59bc 5def 0f3f
