model.ckpt (torch, 21831 bytes, 6 tensors)

layer1.weight f4 [64, 5]
-3.631981 -0.0215956 0.08875557 0.10954276 0.16789688 0.47154137 0.09762667 0.40195978
-0.057589512 -0.14695337 -1.2150753 -0.042454984 0.67542297 0.31139845 -0.2018305 0.5050156
0.021122966 0.0029015974 -8.387762e-05 -0.7263295 0.28096208 -0.090729594 0.073468946 -0.51723933
0.21622968 0.2857377 0.10233337 -0.45962054 -0.44925782 -0.23805733 0.0033307667 0.002021092
-0.0036984743 0.15855485 -0.95255136 -0.41437998 0.014126746 0.07390826 0.20672633 -0.043560416
0.41664767 0.1615607 -0.2999791 -0.05422166 0.18276505 -0.14546409 -0.030474784 0.10888932
0.64609003 0.5605124 0.123803616 -0.7599775 0.21507062 0.13133854 0.1226063 0.13500251
-0.008582492 0.09480163 -0.65479374 0.0028459358 0.38150343 0.24298356 0.08217371 0.3067131
0.41586557 -0.08040445 0.0035801525 -0.06781823 -0.5161477 0.24958491 -0.13544634 -0.4565458
-0.0873619 0.33123296 -0.26212373 -0.19531024 -0.027776903 0.0049918015 0.81511384 -0.22847667
0.058869064 -0.08492693 -0.23698966 0.1913423 -0.3357538 -0.1649195 0.06967711 -0.18309762
0.8429597 -0.4643374 0.06609884 0.009485463 0.025304742 -0.3531939 -0.6686479 -1.1584344
-0.01129535 0.60365784 -0.06680294 0.25291947 -0.2305777 0.008963203 -0.14942072 0.33756566
-0.09552528 0.16777153 -0.43893576 0.19077112 -0.20370312 -0.37842494 -0.14222464 -0.032935686
-0.26455808 -0.3268878 -0.1470696 -0.17480972 -0.72455436 -0.09273922 -0.026830425 0.2537782
-0.45586607 -0.13334182 0.22016016 -0.52100444 0.34126672 -0.14504504 0.21180649 -0.04598797
-0.39491817 0.30079028 -0.22224863 -0.02772276 0.446709 0.20294169 0.49123076 -1.1649371
-0.017983774 0.66276217 0.036411244 -0.15925819 0.31872422 0.05407001 -0.12883218 -0.3775721
0.049372945 -0.31598803 -0.41443983 -0.036839783 0.19132227 -0.14776522 -0.21089998 -0.33317932
0.27534935 -0.110788405 0.20704964 -0.7123879 0.05364568 -0.23616059 -0.12819153 0.2488262
0.3366619 0.14611296 -1.5102905 -0.031941924 0.26641563 0.080191866 0.120821774 0.30935675
-0.90681213 -0.13343625 0.27260435 -0.06073314 -0.19786876 -0.35264134 -0.3280283 -0.35259154
-0.17405796 -0.30861753 -0.19807823 0.0020124316 -0.23607051 -0.038576495 0.07496859 0.646029
-0.33275127 0.26017138 -0.5017861 -0.13033617 -0.025931805 0.016757587 -0.01983687 0.22438225
0.50099385 -0.07902256 -0.051457833 0.19361317 -0.049206864 0.26849478 -0.24392997 0.028000306
0.84792125 -0.011545871 0.12751414 -0.19200623 -0.25856638 -0.13647336 0.021195427 0.054705612
-0.5929271 0.10285331 0.03150406 -0.32177418 -0.40514237 -0.922257 0.07435506 -0.084269874
0.060434308 -0.3775593 -0.62178147 0.3624215 -0.36559713 -0.020645427 0.3122404 0.50224227
-0.28873688 -0.20079185 0.03698414 -0.008947045 0.80256057 0.5138081 0.011226594 -0.035915762
0.093149245 -0.23796692 -0.42036957 -0.2510224 -0.17429927 0.022508442 0.038293213 -0.42809474
-0.35803178 -0.007704363 -0.18524617 0.49065632 0.28857782 0.4414134 -0.09942941 -0.040134903
0.20382059 -0.5226651 0.008064063 0.034911714 -0.29277685 0.59404975 -0.67033225 -0.17164487
00000000: 6072 68c0 41e9 b0bc 7bc5 b53d f457 e03d
00000010: 29ed 2b3e df6d f13e 7ef0 c73d accd cd3e
00000020: fbe2 6bbd f27a 16be 9687 9bbf 47e5 2dbd
00000030: 85e8 2c3f 9e6f 9f3e a8ac 4ebe b448 013f
00000040: 120a ad3c ba28 3e3b 74e7 afb8 bbf0 39bf
00000050: 43da 8f3e 70d0 b9bd e376 963d cc69 04bf
00000060: 506b 5d3e 364c 923e 2894 d13d 6253 ebbe
00000070: 1f05 e6be 4dc5 73be fe48 5a3b 4c74 043b
00000080: 1a62 72bb 345c 223e 68da 73bf 9d29 d4be
00000090: de73 673c 375d 973d 11b0 533e 686c 32bd
000000a0: d852 d53e 2b70 253e dc96 99be 8817 5ebd
000000b0: c326 3b3e 8af4 14be 41a6 f9bc 5d01 df3d
000000c0: 2866 253f be7d 0f3f c08c fd3d e38d 42bf
000000d0: 793b 5c3e 9c7d 063e 0319 fb3d 193e 0a3e
000000e0: 959d 0cbc 5b27 c23d 90a0 27bf e182 3a3b
000000f0: 6b54 c33e afd0 783e b14a a83d 8009 9d3e
00000100: 55ec d43e 17ab a4bd fea0 6a3b 49e4 8abd
00000110: 4122 04bf 3093 7f3e 72b2 0abe 5fc0 e9be
00000120: ccea b2bd 5e97 a93e 1535 86be 68ff 47be
00000130: 638c e3bc 4492 a33b 4dab 503f caf5 69be
00000140: b020 713d 2cee adbd 6bad 72be 3cef 433e
00000150: ece7 abbe a8e0 28be dfb2 8e3d f17d 3bbe
00000160: 35cc 573f a2bd edbe d45e 873d ea68 1b3c
00000170: e44b cf3c d5d5 b4be 822c 2bbf 9447 94bf
00000180: 2210 39bc 5289 1a3f fbcf 88bd a97e 813e
00000190: 901c 6cbe 66da 123c bf01 19be 68d5 ac3e
000001a0: c2a2 c3bd 4dcc 2b3e 30bc e0be 8159 433e
000001b0: 8d97 50be eac0 c1be 56a3 11be 92e7 06bd
000001c0: 2874 87be d65d a7be 6a99 16be 5201 33be
000001d0: 657c 39bf 0fee bdbd 7bcb dbbc 37ef 813e
000001e0: 4767 e9be c28a 08be aa71 613e 8c60 05bf
000001f0: 83ba ae3e b086 14be cde3 583e e25d 3cbd
00000200: b732 cabe 2f01 9a3e 2595 63be d71a e3bc
00000210: 0bb7 e43e f2cf 4f3e 9982 fb3e a91c 95bf
00000220: b552 93bc c8aa 293f f523 153d 9414 23be
00000230: d22f a33e 8478 5d3d 95ec 03be 2151 c1be
00000240: 493b 4a3d 2fc9 a1be 7531 d4be 50e5 16bd
00000250: fce9 433e c44f 17be 2af6 57be 7b96 aabe
00000260: 97fa 8c3e 08e5 e2bd d204 543e 0e5f 36bf
00000270: 93bb 5b3d 15d4 71be a444 03be 4ccc 7e3e
00000280: f35e ac3e a39e 153e 3351 c1bf 89d5 02bd
00000290: a167 883e a23b a43d 6871 f73d 0264 9e3e
000002a0: d724 68bf 83a3 08be cc92 8b3e 50c3 78bd
000002b0: 1c9e 4abe 688d b4be 53f3 a7be e186 b4be
000002c0: 403c 32be 1e03 9ebe 05d5 4abe 00e3 033b
000002d0: 78bc 71be 6302 1ebd 2289 993d 2862 253f
000002e0: 605e aabe 2f35 853e 0e75 00bf d876 05be
000002f0: f06e d4bc 3547 893c ee80 a2bc 76c4 653e
00000300: 2241 003f 94d6 a1bd 73c5 52bd 8842 463e
00000310: 238d 49bd 2678 893e c7c8 79be e660 e53c
00000320: 5e11 593f e52a 3dbc 1193 023e 489d 44be
00000330: d062 84be acbf 0bbe 08a2 ad3c fe12 603d
00000340: 12ca 17bf c2a4 d23d 670a 013d 96bf a4be
00000350: d26e cfbe 0919 6cbf 7747 983d af95 acbd
00000360: f789 773d 744f c1be 122d 1fbf 508f b93e
00000370: 8c2f bbbe 9920 a9bc f9dd 9f3e f392 003f
00000380: 52d5 93be 619c 4dbe ae7c 173d a096 12bc
00000390: 9c74 4d3f ed88 033f c0ef 373c 681c 13bd
000003a0: 08c5 be3d 9aad 73be ae3a d7be 0286 80be
000003b0: 827b 32be a063 b83c 58d9 1c3d 3c2f dbbe
000003c0: f14f b7be e274 fcbb 2cb1 3dbe 4e37 fb3e
000003d0: 79c0 933e f000 e23e a6a1 cbbd 7f64 24bd
000003e0: 58b6 503e 61cd 05bf 221f 043c 96ff 0e3d
000003f0: d9e6 95be a513 183f e59a 2bbf acc3 2fbe

layer1.bias f4 [64]
-0.073467985 -0.3353739 -0.0121565685 0.18178584 0.0823313 0.089452684 0.53883505 0.22032557
0.180381 -0.45522702 -0.10172593 0.35066086 -0.45755336 0.29673254 0.12163835 -0.12287866
-0.3389302 -0.063686356 0.6629206 0.034387138 -0.16313156 -0.36588207 0.05289858 0.13652287
0.44991812 -0.401028 -0.52760655 0.10849163 -0.32249233 -0.13103375 -0.042156998 0.27395633
-0.10730685 -0.048725467 -0.2614112 -0.009230614 -0.09141336 0.31161126 -0.38449422 -0.20689823
-0.3795947 0.41141582 -0.016415646 0.38609147 0.023724087 -0.5524085 -0.293548 -0.1048201
-0.14197317 -0.092015356 0.15162058 -0.32307005 -0.43818957 -0.40211585 -0.014012411 0.14036214
-0.3505224 -0.14733002 -0.1763495 0.107321665 0.38544264 -0.106004976 0.01616169 0.31703407
00000000: 6276 96bd 21b6 abbe 582c 47bc 1126 3a3e
00000010: 509d a83d f832 b73d 18f1 093f 079d 613e
00000020: ccb5 383e 8413 e9be af55 d0bd d289 b33e
00000030: 6f44 eabe 54ed 973e 871d f93d cfa7 fbbd
00000040: 4288 adbe fe6d 82bd 2ab5 293f 87d9 0c3d
00000050: f60b 27be e554 bbbe 2eac 583d a7cc 0b3e
00000060: ab5b e63e 8b53 cdbe 3911 07bf dc30 de3d
00000070: b71d a5be b62d 06be d1ac 2cbd 0144 8c3e
00000080: b2c3 dbbd 5b94 47bd b0d7 85be 003c 17bc
00000090: ed36 bbbd 838b 9f3e 6ddc c4be 21dd 53be
000000a0: 3d5a c2be 18a5 d23e 1b7a 86bc c8ad c53e
000000b0: 0459 c23c a56a 0dbf ec4b 96be ecab d6bd
000000c0: 6a61 11be 8c72 bcbd 6d42 1b3e 7069 a5be
000000d0: 625a e0be 21e2 cdbe 5094 65bc 18bb 0f3e
000000e0: ac77 b3be aedd 16be f794 34be 76cb db3d
000000f0: bd58 c53e 2319 d9bd 8565 843c 4a52 a23e

layer2.weight f4 [64, 64]
0.1943507 -0.13079894 -0.41122812 -0.1606471 0.11528841 -0.6453954 0.7182793 0.120993644
0.14337908 0.014967659 0.055168934 -0.007120381 -0.10233157 -0.01777625 -0.26541004 -0.1357169
-0.11276248 -0.2450926 -0.3471229 -0.3830926 0.07575612 0.05994641 -0.030890977 0.07294991
0.2049389 -0.062012907 0.13324419 -0.46669173 -0.038093623 0.03893961 -0.021443663 0.078520246
-0.37406206 0.08378674 -0.04432425 -0.06766939 0.0039418875 0.0837634 -0.044995297 0.008989771
-0.1664955 0.13412514 0.096747495 0.09673776 0.09812552 0.049288183 0.0028553605 0.075686336
0.22438103 -0.14356108 -0.20033339 0.05708401 0.024856731 -0.3743135 -0.40454364 -0.41024965
-0.34037557 0.48091805 0.14432019 0.13563856 0.11504781 -0.21129048 -0.033008177 0.11074208
-0.16865222 -0.0834445 0.1267404 -0.13247776 -0.032058597 -0.1035632 -0.12852676 0.07146805
-0.10326076 -0.031742796 -0.10034557 -0.07146021 -0.14973246 0.05504711 -0.09972777 0.03206363
-0.024750188 -0.1548021 0.06363978 0.0955999 0.056975305 -0.02325368 0.015807763 -0.10813374
-0.03657894 0.018368587 0.001904636 0.048502516 0.051688686 -0.042315632 0.073563665 0.10356631
-0.10536301 0.06561926 -0.10567041 -0.0060046017 0.1473923 -0.10936004 -0.15918958 -0.0292401
-0.05054627 -0.07468173 -0.087668456 -0.10762224 -0.12380439 -0.083548896 -0.07698992 0.04435818
-0.008864276 -0.1546231 0.02160067 -0.09093507 0.041820437 -0.0627183 0.046002984 -0.1255645
-0.048151083 -0.01821494 0.02880364 -0.13914795 -0.30088407 0.12593073 -0.24760967 0.06427029
-0.1149784 -0.06318181 -0.4842129 0.19497465 -0.03122625 0.25265405 -0.24113204 -0.42935368
0.2600431 -0.20798485 -0.07070357 0.0029844043 0.09986551 -0.011564277 -0.3442261 -0.04616409
0.11772871 0.12319075 -0.05969371 -0.3362441 0.0894126 0.017097585 0.003265233 -0.306427
-0.6448996 0.0069574644 -0.2154551 -0.66449153 0.07863823 -0.11549969 -0.5089086 -0.74455434
0.15372582 -0.15480544 -0.11663611 -0.007302895 -0.9511291 0.23589452 -0.52662486 -0.27900955
0.25612587 -0.22243159 -0.1004418 0.008048277 -0.70544493 -0.3600611 0.021273687 0.050057516
-0.09947128 -0.001126577 0.3172854 0.105976924 -0.093055665 0.23371981 0.07513101 0.2556006
0.40366644 0.26862404 -0.0915843 -0.10085784 -0.4576819 0.008038057 -0.41922936 0.16696632
0.07396794 -0.006207583 -0.0055905976 0.071047105 -0.13134277 0.018854748 0.002696291 0.03460503
-0.099026404 0.0056412406 -0.08136648 0.028626254 -0.102250725 -0.10453302 -0.05098544 0.06950825
-0.03637132 -0.052015804 0.04623121 0.058409233 0.07308985 0.026651785 -0.037510008 0.003897056
-0.12524144 0.053496495 0.016470911 0.045158945 0.023464143 -0.05196686 0.07465461 -0.13495219
-0.081578836 0.08040909 0.025273636 0.07662897 -0.07512871 -0.042931512 0.06319962 -0.017126057
0.05139513 -0.07514245 -0.02416475 0.07418628 -0.035012435 -0.015141571 0.049990043 0.018158376
-0.11686363 -0.06638701 0.029265733 -0.10190357 -0.08067042 -0.12294087 -0.07612592 0.030404827
0.082755834 -0.10749176 -0.10494198 0.0416769 -0.07249915 0.038711507 -0.07720881 -0.16182622
00000000: df03 473e 28f0 05be 7e8c d2be ac80 24be
00000010: 541c ec3d a238 25bf 27e1 373f 84cb f73d
00000020: f7d1 123e e93a 753c d2f8 613d 1652 e9bb
00000030: 3793 d1bd 809f 91bc d3e3 87be 5ff9 0abe
00000040: 04f0 e6bd 8ef9 7abe 18ba b1be b724 c4be
00000050: 0626 9b3d 5e8a 753d 130f fdbc c366 953d
00000060: 81db 513e 3f01 7ebd 2a71 083e 38f2 eebe
00000070: 0f08 1cbd 247f 1f3d 9faa afbc 39cf a03d
00000080: 1085 bfbe 6298 ab3d 588d 35bd 4096 8abd
00000090: f32a 813b 258c ab3d fd4c 38bd d549 133c
000000a0: cc7d 2abe 1a58 093e 8d23 c63d 721e c63d
000000b0: 08f6 c83d 68e2 493d 0021 3b3b 7001 9b3d
000000c0: 24c4 653e ad01 13be 3224 4dbe ecd0 693d
000000d0: 58a0 cb3c 05a6 bfbe 5820 cfbe 3e0c d2be
000000e0: b545 aebe e43a f63e acc8 133e d6e4 0a3e
000000f0: 309e eb3d 885c 58be 9533 07bd becc e23d
00000100: 2bb3 2cbe f3e4 aabd 3cc8 013e 40a8 07be
00000110: e04f 03bd f118 d4bd 859c 03be d75d 923d
00000120: 617a d3bd bc04 02bd fa81 cdbd bb59 92bd
00000130: 7753 19be 1479 613d 133e ccbd 2755 033d
00000140: e8c0 cabc 7184 1ebe 9355 823d e1c9 c33d
00000150: f05e 693d 807e bebc 487f 813c 3975 ddbd
00000160: ccd3 15bd b879 963c fba4 f93a 93aa 463d
00000170: 84b7 533d 2853 2dbd 8ca8 963d 931a d43d
00000180: 90c8 d7bd 6463 863d ba69 d8bd 40c2 c4bb
00000190: 02ee 163e 28f8 dfbd 9802 23be ef88 efbc
000001a0: 9b09 4fbd bcf2 98bd 858b b3bd 0d69 dcbd
000001b0: 288d fdbd af1b abbd e4ac 9dbd ecb0 353d
000001c0: 783b 11bc 8555 1ebe e3f3 b03c 2a3c babd
000001d0: e84b 2b3d 7472 80bd a06d 3c3d fb93 00be
000001e0: 123a 45bd 7f37 95bc 9cf5 eb3c cd7c 0ebe
000001f0: 7a0d 9abe fcf3 003e 648d 7dbe 24a0 833d
00000200: cc79 ebbd 7765 81bd c1ea f7be 6fa7 473e
00000210: 31ce ffbc df5b 813e 51eb 76be 3fd4 dbbe
00000220: 5f24 853e fbf9 54be 09cd 90bd ff95 433b
00000230: 4a86 cc3d 1878 3dbc 673e b0be 8f16 3dbd
00000240: c01b f13d 6f4b fc3d 6481 74bd 3028 acbe
00000250: f41d b73d 3c10 8c3c 85fd 553b 00e4 9cbe
00000260: 2418 25bf 71fb e33b 43a0 5cbe 1e1c 2abf
00000270: 150d a13d 1a8b ecbd d647 02bf 1d9b 3ebf
00000280: 4d6a 1d3e 5185 1ebe eade eebd 204d efbb
00000290: 327d 73bf 558e 713e e3d0 06bf 57da 8ebe
000002a0: ee22 833e 1bc5 63be 6eb4 cdbd ecdc 033c
000002b0: 0a98 34bf ee59 b8be 2846 ae3c 1c09 4d3d
000002c0: 99b7 cbbd a7a9 93ba 3b73 a23e 6e0a d93d
000002d0: f893 bebd 3f54 6f3e 49de 993d 15de 823e
000002e0: 5ead ce3e 1789 893e 8d90 bbbd 8e8e cebd
000002f0: 4855 eabe 0eb2 033c 3ba5 d6be 38f9 2a3e
00000300: 817c 973d fb68 cbbb 5531 b7bb 2581 913d
00000310: b87e 06be 4675 9a3c 42b4 303b 01be 0d3d
00000320: 5bce cabd 28da b83b 78a3 a6bd 9b81 ea3c
00000330: d468 d1bd 6815 d6bd 1cd6 50bd 575a 8e3d
00000340: 18fa 14bd 860e 55bd f05c 3d3d 853e 6f3d
00000350: 22b0 953d d854 da3c 18a4 19bd c065 7f3b
00000360: 4b3f 00be 241f 5b3d 01ee 863c 96f8 383d
00000370: e037 c03c 34db 54bd 84e4 983d e830 0abe
00000380: ce12 a7bd 85ad a43d a80a cf3c a6ef 9c3d
00000390: 15dd 99bd f4d8 2fbd cd6e 813d f24b 8cbc
000003a0: b383 523d 49e4 99bd 27f5 c5bc faee 973d
000003b0: 3369 0fbd 5a14 78bc 5cc2 4c3d e0c0 943c
000003c0: 3356 efbd eaf5 87bd b1be ef3c d2b2 d0bd
000003d0: 8836 a5bd 6cc8 fbbd e8e7 9bbd 8b13 f93c
000003e0: e47b a93d a424 dcbd d2eb d6bd 66b5 2a3d
000003f0: 6f7a 94bd f58f 1e3d a71f 9ebd c6b5 25be

layer2.bias f4 [64]
0.22128022 -0.13040325 -0.08393637 -0.13577308 -0.07676007 0.17050369 -0.08810591 0.07482916
0.026386855 -0.023523316 0.008852994 0.13806258 -0.13537636 -0.12875952 -0.041317403 -0.16100682
0.020279886 -0.10486768 -0.13215046 -0.07204641 -0.14419247 0.05671669 0.025157282 -0.2657058
-0.15851665 0.1335335 0.19226445 -0.13765207 0.2240968 0.10313526 -0.06755938 -0.08192168
0.011726898 0.15849558 0.0062318253 0.085705884 0.25477895 0.27610132 -0.0132783735 0.12375674
-0.2264235 -0.27506855 -0.11999754 -0.03955001 0.20501749 0.20350216 0.07400019 -0.3102492
0.23248875 0.22494455 0.23654407 -0.03497096 -0.29547668 -0.0048441906 -0.20568323 0.06358954
0.0945012 -0.08866111 -0.0748851 0.010019588 0.05699205 0.12250121 -0.01951343 0.16666293
00000000: 4897 623e 6e88 05be d5e6 abbd 1908 0bbe
00000010: 6234 9dbd 8598 2e3e df70 b4bd 0840 993d
00000020: 3f29 d83c f8b3 c0bc 260c 113c 4760 0d3e
00000030: 1aa0 0abe 89d9 03be 703c 29bd f9de 24be
00000040: 0122 a63c dec4 d6bd 7352 07be 118d 93bd
00000050: 31a7 13be c34f 683d a516 ce3c 970a 88be
00000060: 3052 22be 01bd 083e f9e0 443e aaf4 0cbe
00000070: a279 653e 9438 d33d 925c 8abd 8ec6 a7bd
00000080: 2d22 403c aa4c 223e 5734 cc3b 9186 af3d
00000090: 6372 823e 275d 8d3e 898d 59bc 2c74 fd3d
000000a0: 90db 67be c9d5 8cbe 45c1 f5bd 31ff 21bd
000000b0: 1bf0 513e df62 503e 698d 973d fcd8 9ebe
000000c0: 8811 6e3e dd57 663e 9c38 723e b63d 0fbd
000000d0: b848 97be 04bc 9ebb a09e 52be 3c3b 823d
000000e0: d889 c13d f593 b5bd 5c5d 99bd 3329 243c
000000f0: 7f70 693d eae1 fa3d a1da 9fbc b0a9 2a3e

layer3.weight f4 [7, 64]
0.033209287 -0.036933318 0.26987904 -0.057470348 0.030681076 0.08023725 0.079246104 0.39894283
0.014071265 -0.10744323 -0.014993006 0.20885444 0.03885583 0.14333668 0.11369677 0.044862177
-0.095239304 -0.032786377 -0.09423246 0.06476803 -0.0415819 0.4259343 -0.030744826 -0.69302726
-0.092143625 0.18506089 -0.012595389 -0.015014022 0.81874186 0.42412266 0.05754546 0.053201005
0.06268432 0.05184158 0.08606566 0.2422935 -0.052454982 -0.1364598 0.11400767 0.17514047
-0.84505904 0.68600374 0.048683196 0.026620995 0.1363465 0.12968214 0.22828035 -0.9038001
0.21412115 -0.0146555845 -0.30718452 -0.21854645 0.42803854 0.018136797 0.73642564 0.33626708
0.007818557 0.083446205 0.018290605 0.32416645 -0.07737376 0.6786799 0.06082261 0.3160476
0.032286998 -0.090085156 -0.1518699 -0.030913888 0.08214418 0.11467924 0.19872062 -0.26757446
0.1000038 0.040036544 -0.1138901 0.12347066 -0.051713444 0.03855509 -0.085403554 -0.065286845
0.05970116 -0.13695797 -0.09752116 -0.08113888 0.04835287 -0.2964222 -0.10962653 0.0382676
-0.012991538 0.2738336 0.18440795 -0.045817938 -0.5442807 -0.6622673 0.051827554 -0.002231113
-0.06542506 0.052840896 -0.059610583 -0.49495265 0.30615243 0.09619929 0.30300215 -0.2225014
0.26370943 0.013035972 -0.11403208 0.039663516 0.019629152 -0.19079742 -0.47954783 0.4843283
-0.3773656 0.30333105 0.31345135 0.94263816 -1.2952794 -0.077943005 -0.7017328 -0.33317456
0.06449175 0.096918404 -0.068617955 0.45738748 -0.021772794 -0.28692043 -0.014571407 0.029991318
0.1342406 -0.07408728 -0.025745075 -0.008630934 -0.0024986372 0.1881214 -0.13953261 -0.06523375
0.12779516 -0.05586508 -0.12459182 -0.09981769 0.034323893 -0.035656247 -0.43419892 -0.09764777
-0.06369707 0.039846845 0.07045474 0.07258286 -0.0008342105 -0.4274311 -0.05517498 0.20883943
-0.02772399 -0.0845492 0.178079 -0.049826723 -0.1568912 0.10822145 -0.10925081 0.0066464376
-0.05497975 0.05857674 -0.08937061 -0.4468148 0.14728406 0.0024084006 -0.18582024 0.47113734
1.0130284 -0.29375002 -0.0022095572 0.27394977 0.024522638 0.3177448 0.14645277 0.47675303
0.34655812 0.036881607 0.23744483 -0.20369841 0.64758515 0.07631032 -0.46898767 -0.40594912
0.252071 -0.07613713 -0.024318019 -0.15527785 -0.123559676 -0.5598447 0.02419025 -0.23341632
0.11758391 -0.21613339 -0.23189218 0.05632057 -0.17100663 -0.1676263 -0.1955129 -0.45623165
-0.036283314 -0.060416833 -0.054298483 -0.528266 -0.06564133 -0.04434915 0.04483544 0.0038007882
-0.12633173 -0.27372968 -0.12620154 0.07905173 -0.058909383 -0.28501627 -0.045823615 0.26282418
0.0169812 -0.3670895 -0.19099163 -0.043571994 -0.27068806 -0.0007398146 -0.10189944 0.09453945
-0.13520801 -0.21518514 0.06124622 -0.062182352 -0.26068386 -0.06397042 0.21888863 -0.20866287
-0.13388114 0.09646813 -0.01280346 -0.3904058 -0.023195166 0.04594454 -0.4025349 0.14589648
-0.21110813 -0.16893655 0.17903148 -0.6417753 0.12992746 -0.17058198 -0.37088725 0.03801742
-0.10341538 0.059166353 -0.037725225 -0.15973367 0.015492814 0.012764116 -0.09857271 -0.4630475
00000000: 7606 083d 6447 17bd 962d 8a3e 0766 6bbd
00000010: e156 fb3c 6d53 a43d c84b a23d 3c42 cc3e
00000020: 2a8b 663c 320b dcbd 3aa5 75bc f0dd 553e
00000030: 4a27 1f3d dac6 123e dad9 e83d 67c1 373d
00000040: d30c c3bd 024b 06bd f3fc c0bd 1aa5 843d
00000050: c851 2abd 1014 da3e 93dc fbbc 3c6a 31bf
00000060: ccb5 bcbd 9a80 3d3e e45c 4ebc 5ffd 75bc
00000070: 1199 513f 9b26 d93e cab4 6b3d 4ce9 593d
00000080: a360 803d d657 543d 3143 b03d ca1b 783e
00000090: 09db 56bd 1ebc 0bbe da7c e93d 0658 333e
000000a0: ca55 58bf f19d 2f3f 0868 473d 4614 da3c
000000b0: 6b9e 0b3e 65cb 043e 53c2 693e 715f 67bf
000000c0: 9342 5b3e fa1d 70bc 4a47 9dbe a4ca 5fbe
000000d0: de27 db3e 9f93 943c 6486 3c3f 332b ac3e
000000e0: 6819 003c d8e5 aa3d 2ed6 953c 25f9 a53e
000000f0: 2276 9ebd f7bd 2d3f 2121 793d fed0 a13e
00000100: 5f3f 043d 917e b8bd c883 1bbe 1f3f fdbc
00000110: 353b a83d f3dc ea3d 6b7d 4b3e 85ff 88be
00000120: cbce cc3d 5cfd 233d 363f e9bd 2fde fc3d
00000130: 7ad1 53bd f1eb 1d3d 0fe8 aebd 1cb5 85bd
00000140: 3489 743d b63e 0cbe 2db9 c7bd 242c a6bd
00000150: a90d 463d a7c4 97be e083 e0bd 7dbe 1c3d
00000160: 76da 54bc eb33 8c3e 70d5 3c3e 97ab 3bbd
00000170: fb55 0bbf 5a8a 29bf 2149 543d dd37 12bb
00000180: 93fd 85bd b26f 583d 3a2a 74bd 6f6a fdbe
00000190: 03c0 9c3e 2204 c53d 1923 9b3e 68d7 63be
000001a0: ec04 873e d494 553c a789 e9bd 3676 223d
000001b0: 51cd a03c 6660 43be 4b87 f5be e1f9 f73e
000001c0: 1036 c1be 354e 9b3e b27c a03e bc50 713f
000001d0: b7cb a5bf 95a0 9fbd c3a4 33bf db95 aabe
000001e0: 4014 843d 287d c63d 9287 8cbd b12e ea3e
000001f0: dc5c b2bc 3ce7 92be e9bc 6ebc 5ab0 f53c
00000200: 5e76 093e 12bb 97bd 56e7 d2bc c368 0dbc
00000210: 2dc0 23bb e5a2 403e a3e1 0ebe 4699 85bd
00000220: bcdc 023e c8d2 64bd ff29 ffbd 386d ccbd
00000230: 3697 0c3d 490c 12bd 524f debe 8efb c7bd
00000240: 9c73 82bd 7236 233d 934a 903d 53a6 943d
00000250: ebae 5aba 40d8 dabe 29ff 61bd 01da 553e
00000260: 6c1d e3bc 2228 adbd 575a 363e 1b17 4cbd
00000270: 16a8 20be 35a3 dd3d e4be dfbd 5cca d93b
00000280: 7232 61bd 2aee 6f3d f007 b7bd e9c4 e4be
00000290: a2d1 163e 42d6 1d3b a947 3ebe ea38 f13e
000002a0: eaaa 813f 6766 96be 38ce 10bb 2543 8c3e
000002b0: b3e3 c83c 72af a23e b7f7 153e f918 f43e
000002c0: 1170 b13e 2b11 173d bd24 733e 5196 50be
000002d0: 24c8 253f 9648 9c3d 271f f0be 90d8 cfbe
000002e0: 730f 813e c9ed 9bbd 9536 c7bc 2801 1fbe
000002f0: db0c fdbd fb51 0fbf a22a c63c b004 6fbe
00000300: d5cf f03d 1252 5dbe 2575 6dbe 66b0 663d
00000310: 5d1c 2fbe 3ba6 2bbe 8934 48be 3297 e9be
00000320: d09d 14bd a477 77bd 1668 5ebd 713c 07bf
00000330: f66e 86bd 74a7 35bd 5ea5 373d a516 793b
00000340: 1b5d 01be 4c26 8cbe fa3a 01be e0e5 a13d
00000350: f74a 71bd a7ed 91be 8bb1 3bbd e490 863e
00000360: 281c 8b3c 28f3 bbbe 4f93 43be 8c78 32bd
00000370: a097 8abe 1ef0 41ba a7b0 d0bd e69d c13d
00000380: f873 0abe 7e59 5cbe 51dd 7a3d ecb2 7ebd
00000390: 5b78 85be ec02 83bd 5724 603e b8ab 55be
000003a0: 2318 09be 1591 c53d 9ac5 51bc 45e3 c7be
000003b0: ca03 bebc 5830 3c3d 0e19 cebe e365 153e
000003c0: bb2c 58be b4fd 2cbe 0754 373e 634b 24bf
000003d0: b40b 053e 0bad 2ebe efe4 bdbe 27b8 1b3d
000003e0: 71cb d3bd 6b58 723d c485 1abd 3991 23be
000003f0: 92d5 7d3c 9520 513c 7de0 c9bd 9014 edbe

layer3.bias f4 [7]
0.018120961 0.26367524 0.20010357 -0.26263663 -0.33007756 -0.6798069 0.20853128
00000000: 6972 943c 7100 873e f3e7 4c3e 4f78 86be
00000010: edff a8be d307 2ebf 3989 553e
