model.ckpt (torch, 7751 bytes, 6 tensors)

layer1.weight f4 [32, 5]
1.0626805 0.001460716 -0.47114962 0.20269081 0.054596227 -0.08063501 -0.002065727 0.019291112
2.3963544 -0.8647952 -0.01405345 0.011012277 -0.015992412 0.9154741 -2.8533204 -0.008048994
-0.004942317 0.0220824 0.97997296 -1.3835492 0.030620957 -0.014169373 0.0047491416 -1.4367515
-1.304197 0.014369423 0.011458078 0.00089062727 -3.17144 1.4973769 -0.6375465 -1.5483942
0.15021947 -0.006376965 0.13332625 -0.19634381 -0.8654184 -1.1309248 0.08078576 -0.036281344
-0.021540606 -0.011981009 -0.013183872 -0.28932437 2.4141943 -0.98437005 -0.13132891 -0.62303495
0.04367393 -0.017964682 -0.16092029 0.21330726 0.075793386 0.002361834 -0.018913776 0.25453562
0.052625358 -0.3280823 0.1599682 -0.2767291 -2.1842122 -0.018744878 0.8060619 0.052946918
-0.12940744 1.8408023 -0.039085567 -0.28885987 -0.106989145 0.005397476 1.2242237 0.08038035
0.4931034 0.06703205 -0.4713477 -0.4338394 -0.3548823 -0.07340798 0.0028505921 -0.19927818
0.8959376 0.11188003 -2.080894 -0.085667886 -0.023571204 -0.6876447 -0.86588985 0.4770495
-0.100086145 -0.027934663 0.27251413 0.02263177 0.11656904 -2.3349621 1.1385114 0.34883046
0.0032890362 -0.22281624 0.67738223 -1.2261839 0.009002289 0.0029938137 0.015854321 -0.62573993
1.6281912 -0.5355484 0.026150767 0.015916182 -0.9018373 -0.29177216 0.24186753 0.00071414834
-0.1851768 -1.1050819 -0.7087605 0.20074825 -0.2744384 -0.29601774 -0.4350601 -0.07230469
0.0173789 0.0057044453 -0.03339864 2.1719334 0.9270441 -0.20423508 0.09642011 -0.29290658
0.43557042 -0.30642077 0.041346963 -0.008505335 -0.021465505 2.731717 -1.0810549 -5.67031
-0.034611788 0.78324515 0.16464898 -0.056317445 0.24211624 -0.40989593 -0.36528468 -0.39484254
-0.15164386 0.30543602 -3.1341436 -0.01217904 0.37004867 0.87793267 -0.37619874 -0.13131404
-0.2626567 -0.09560859 0.21019101 -0.04347938 -0.007926142 0.04107985 0.721565 1.9902736
00000000: ea05 883f 7f75 bf3a 863a f1be 2e8e 4f3e
00000010: 4ba0 5f3d f823 a5bd 2661 07bb 6508 9e3c
00000020: df5d 1940 3863 5dbf 7140 66bc d66c 343c
00000030: 8502 83bc 835c 6a3f cd9c 36c0 eddf 03bc
00000040: 29f3 a1bb 26e6 b43c 82df 7a3f 2418 b1bf
00000050: cdd8 fa3c a826 68bc b09e 9b3b 79e7 b7bf
00000060: edef a6bf ba6d 6b3c aaba 3b3c fc78 693a
00000070: dff8 4ac0 0caa bf3f 3f36 23bf c831 c6bf
00000080: 22d3 193e dcf5 d0bb ad86 083e 5a0e 49be
00000090: 0f8c 5dbf 25c2 90bf 0173 a53d bf9b 14bd
000000a0: ed75 b0bc fe4b 44bc 2b01 58bc 5322 94be
000000b0: 2982 1a40 adff 7bbf 167b 06be 387f 1fbf
000000c0: 6fe3 323d ab2a 93bc 4ac8 24be 386d 5a3e
000000d0: 9039 9b3d 00c9 1a3b 10f1 9abc 7e52 823e
000000e0: b08d 573d 67fa a7be b4ce 233e 70af 8dbe
000000f0: 22ca 0bc0 dc8e 99bc 135a 4e3f dede 583d
00000100: 6283 04be 699f eb3f 3018 20bd 71e5 93be
00000110: 201d dbbd 4fdd b03b 5db3 9c3f 749e a43d
00000120: 0d78 fc3e 1948 893d 7c54 f1be 3320 debe
00000130: 22b3 b5be ec56 96bd 00d1 3a3b 940f 4cbe
00000140: 2b5c 653f 5b21 e53d 5e2d 05c0 a572 afbd
00000150: 6618 c1bc 7c09 30bf f5aa 5dbf d53f f43e
00000160: f7f9 ccbd 3cd7 e4bc f986 8b3e 4366 b93c
00000170: c0bb ee3d 0570 15c0 beba 913f e899 b23e
00000180: df8c 573b f129 64be ec68 2d3f 98f3 9cbf
00000190: 567e 133c dc33 443b ece0 813c 7e30 20bf
000001a0: 9268 d03f b319 09bf 223a d63c a762 823c
000001b0: cfde 66bf 2963 95be 1fac 773e af35 3b3a
000001c0: fd9e 3dbe 5373 8dbf 5471 35bf f390 4d3e
000001d0: 3183 8cbe a38f 97be 33c0 debe 7b14 94bd
000001e0: 325e 8e3c 5bec ba3b 03cd 08bd f500 0b40
000001f0: c352 6d3f 0023 51be e877 c53d daf7 95be
00000200: 1603 df3e 2fe3 9cbe 6f5b 293d f659 0bbc
00000210: 6dd8 afbc 74d4 2e40 0260 8abf 2e73 b5c0
00000220: 17c5 0dbd c182 483f be99 283e 1fad 66bd
00000230: 52ed 773e e1dd d1be 9806 bbbe cd28 cabe
00000240: 8748 1bbe 1c62 9c3e cf95 48c0 998a 47bc
00000250: 0577 bd3e 32c0 603f 1f9d c0be 3077 06be
00000260: f07a 86be 70ce c3bd 503c 573e 6f17 32bd
00000270: a6dc 01bc 5843 283d 7cb8 383f 49c1 fe3f

layer1.bias f4 [32]
-0.34529537 -1.1506091 0.64643216 0.62782395 1.0462228 0.103748776 0.5554517 0.36315224
-1.3070536 0.72972536 -0.4007103 -0.4393626 0.49432847 -1.1738278 -0.9853888 -0.41656047
-0.2830597 0.34652248 -0.5746228 0.2966361 -0.5130842 0.9475861 1.2153664 -0.1489943
-1.7453858 -0.37687516 -1.011631 0.04098253 -0.18133605 -0.9333053 -0.35272795 -1.3078805
00000000: 8eca b0be 2947 93bf 947c 253f 12b9 203f
00000010: a1ea 853f 3d7a d43d 1532 0e3f 17ef b93e
00000020: 884d a7bf 48cf 3a3f e729 cdbe 22f4 e0be
00000030: 9f18 fd3e fd3f 96bf 7142 7cbf 6a47 d5be
00000040: 33ed 90be 656b b13e 7b1a 13bf b0e0 973e
00000050: 7c59 03bf 0195 723f 2091 9b3f f691 18be
00000060: cd68 dfbf c8f5 c0be 207d 81bf 4cdd 273d
00000070: 28b0 39be 19ed 6ebf c298 b4be a168 a7bf

layer2.weight f4 [32, 32]
1.1567513 1.1136401 1.0390209 -1.0863801 0.9719395 0.7064874 -1.9619501 0.82176554
0.10753821 0.99580264 -0.09780682 -0.0007388741 0.8997523 1.5827091 -0.2897759 -0.11583905
0.7964922 1.4504372 0.21727057 -1.3026929 0.8704433 0.18626821 -0.9452612 -0.04103887
0.11406204 -0.021606416 1.1202196 -1.0377203 -0.07887993 0.9002762 0.07077107 -0.35441548
-1.0835024 1.7116863 0.5299642 -0.008016233 -5.7877827 -0.9672581 0.13424878 -0.3322177
0.417717 0.7207065 -0.07984775 0.07877003 -1.7040997 0.40759096 -0.8921104 -0.14351836
0.08214053 0.20801607 -0.14079128 0.49053705 0.095402636 -0.08156517 0.014836006 0.008392764
-0.43521854 -0.07988769 -0.75446457 -2.3232741 -0.10409618 0.13868311 -0.08730052 0.980742
-0.07336195 -0.9232291 1.2022085 0.72960293 -0.6422406 -0.25717437 0.05725491 -0.11647414
-0.8154161 -0.040852528 0.1455244 -0.013789222 0.34012508 0.16769859 0.10711606 -0.16878869
-0.0259416 -0.092408046 0.7156605 0.10541939 0.13745883 -0.3286207 0.6260896 -0.07147953
-3.081695 -0.01706098 -7.644143 -0.30496585 -0.09283848 -0.058548093 0.019045174 -1.0140084
-0.65217173 3.7547524 -23.345882 0.040203836 0.5831138 -0.3946986 0.28017023 0.08319639
0.38583162 0.14210679 -0.13862745 -0.16608316 -0.16001467 -1.5696665 -1.8946147 -0.14858241
0.5562006 -0.22140883 0.8026904 0.82176095 0.38275176 0.6412351 -0.22524258 0.08873434
0.48751268 0.16781689 -0.583466 -0.3505517 -0.12454488 1.3909911 0.13656078 1.1359484
0.020285664 -0.17169616 -0.07731163 0.061573863 -0.059164163 0.10295865 0.033988837 -0.15872183
0.064465106 0.09027112 -0.0086955875 -0.13275316 0.13500395 0.1358345 -0.017279983 -0.16424273
-0.19360904 -0.13578086 -0.07011398 0.009554949 0.027036136 -0.05465002 -0.16031489 -0.050455928
-0.118838444 -0.13104042 0.06251318 -0.17006487 0.034790322 0.038093377 -0.016061306 -0.057529114
1.1166034 -4.4876714 -0.16397303 0.01176587 -0.0913159 1.0412358 -0.23144078 -0.36293605
-4.160318 0.40854198 -0.00022420287 0.0420011 0.13668415 -0.63593656 -0.11162781 0.11231767
-0.2959614 0.13888302 1.1892878 1.0972528 0.3536962 -0.24731931 -0.6985553 -0.019678049
2.0687006 -0.14382035 -0.5422072 -0.25053608 0.10766472 0.11079708 0.007762015 -1.0140445
0.111410476 -4.813323 0.48697826 0.9872094 -0.21161094 -0.23121063 -0.016042616 -0.33193833
-1.5415775 0.5976804 -0.14269407 -0.027835533 0.123716295 0.13110292 -0.011728675 -0.1546398
0.12884681 0.059669882 1.228982 0.53292423 -0.34555373 0.31728035 0.0025401672 -0.11965314
-1.6857077 -0.121972635 -2.764087 -0.45431325 -0.012132144 0.46503317 -0.16075715 -0.15571667
-0.063190505 -0.09413161 -0.099467315 -0.08440068 -0.086187765 -0.0045384117 0.057954304 -0.16301009
0.118207216 0.04168395 -0.061974183 0.07739802 -0.14543876 0.062870115 0.008125238 0.071842015
0.016317902 0.0086310515 -0.051496144 -0.077714145 -0.068841375 -0.11691288 -0.15358861 -0.124726556
-0.057245437 -0.036228523 0.010651487 0.15065275 -0.012788743 0.0063643064 -0.015674427 -0.11296142
00000000: 6d10 943f c28b 8e3f a3fe 843f 810e 8bbf
00000010: 07d1 783f 5cdc 343f 2e21 fbbf 3a5f 523f
00000020: fe3c dc3d ecec 7e3f f14e c8bd 00b1 41ba
00000030: 2b56 663f 3696 ca3f 825d 94be 063d edbd
00000040: eae6 4b3f eda7 b93f 2d7c 5e3e a4be a6bf
00000050: 5fd5 5e3f 18bd 3e3e a3fc 71bf 6018 28bd
00000060: 5c99 e93d f0ff b0bc 5b63 8f3f 05d4 84bf
00000070: cd8b a1bd 8078 663f 6cf0 903d f275 b5be
00000080: 35b0 8abf 8918 db3f bcab 073f 8556 03bc
00000090: 8435 b9c0 3a9e 77bf 8378 093e 7018 aabe
000000a0: 01df d53e 3980 383f 3887 a3bd 2e52 a13d
000000b0: f01f dabf c3af d03e 5961 64bf 7af6 12be
000000c0: 4b39 a83d 2a02 553e 972b 10be ac27 fb3e
000000d0: 7562 c33d a40b a7bd b812 733c ce81 093c
000000e0: f7d4 debe 289c a3bd 9724 41bf 86b0 14c0
000000f0: 6130 d5bd f202 0e3e 9dca b2bd e811 7b3f
00000100: ca3e 96bd be58 6cbf f8e1 993f 42c7 3a3f
00000110: e169 24bf 5cac 83be 2084 6a3d fe89 eebd
00000120: 1cbf 50bf fb54 27bd 5904 153e 30ec 61bc
00000130: e024 ae3e 2eb9 2b3e aa5f db3d f1d6 2cbe
00000140: 7a83 d4bc 6e40 bdbd 8735 373f 1fe6 d73d
00000150: 02c2 0c3e f940 a8be 6847 203f dc63 92bd
00000160: 7e3a 45c0 78c3 8bbc d29c f4c0 7c24 9cbe
00000170: 1a22 bebd 20d0 6fbd a004 9c3c 07cb 81bf
00000180: baf4 26bf dd4d 7040 5ec4 bac1 c7ac 243d
00000190: f246 153f ef15 cabe 7972 8f3e de62 aa3d
000001a0: b98b c53e 7184 113e 5bf4 0dbe b411 2abe
000001b0: e3da 23be d5ea c8bf bc82 f2bf fd25 18be
000001c0: 2a63 0e3f ffb8 62be 1e7d 4d3f ed5e 523f
000001d0: 0af8 c33e fc27 243f fea5 66be 5aba b53d
000001e0: 439b f93e 31d8 2b3e 075e 15bf 837b b3be
000001f0: 6311 ffbd ff0b b23f 97d6 0b3e c266 913f
00000200: 1f2e a63c 1ed1 2fbe 8f55 9ebd e034 7c3d
00000210: 1f56 72bd fcdb d23d e137 0b3d fa87 22be
00000220: 4806 843d 11e0 b83d f077 0ebc 72f0 07be
00000230: 7a3e 0a3e 3318 0b3e c08e 8dbc 3f2f 28be
00000240: 7341 46be 230a 0bbe eb97 8fbd 5c8c 1c3c
00000250: e37a dd3c b3d8 5fbd 9629 24be e0aa 4ebd
00000260: 9261 f3bd 762f 06be e906 803d 7c25 2ebe
00000270: 4c80 0e3d cd07 1c3d 0093 83bc a6a3 6bbd
00000280: dcec 8e3f 019b 8fc0 8ce8 27be a3c5 403c
00000290: d503 bbbd 3747 853f d0fe 6cbe c1d2 b9be
000002a0: 5321 85c0 6a2c d13e 0018 6bb9 5809 2c3d
000002b0: eef6 0b3e bdcc 22bf 1f9d e4bd ce06 e63d
000002c0: 4188 97be 5a37 0e3e 953a 983f c872 8c3f
000002d0: ab17 b53e 4641 7dbe 85d4 32bf dc33 a1bc
000002e0: 9765 0440 a445 13be 17ce 0abf 4446 80be
000002f0: 527f dc3d 94e9 e23d 8058 fe3b 36cc 81bf
00000300: 2d2b e43d be06 9ac0 3755 f93e c1b9 7c3f
00000310: 8ab0 58be 7bc2 6cbe ce6b 83bc d2f3 a9be
00000320: 6952 c5bf 9501 193f 651e 12be 5807 e4bc
00000330: f85e fd3d d83f 063e a129 40bc e559 1ebe
00000340: 6bf0 033e 6868 743d 484f 9d3f b96d 083f
00000350: 6bec b0be 9272 a23e ef78 263b b50c f5bd
00000360: 45c5 d7bf cacc f9bd cde6 30c0 bf9b e8be
00000370: e6c5 46bc d418 ee3e 869d 24be 3174 1fbe
00000380: 066a 81bd 13c8 c0bd 85b5 cbbd 44da acbd
00000390: 3683 b0bd f5b6 94bb 7e61 6d3d 1eec 26be
000003a0: a016 f23d cabc 2a3d a4d8 7dbd da82 9e3d
000003b0: e6ed 14be 0cc2 803d b81f 053c e821 933d
000003c0: 1fad 853c 4169 0d3c 9fed 52bd 9828 9fbd
000003d0: b5fc 8cbd 0570 efbd 5546 1dbe a370 ffbd
000003e0: 317a 6abd 5c64 14bd 9383 2e3c b744 1a3e
000003f0: e087 51bc ac8b d03b a867 80bc 5158 e7bd

layer2.bias f4 [32]
-0.36238506 0.5165201 1.3445836 0.04611852 -0.21504986 0.2917093 0.7006366 -0.1134823
-0.04636121 0.1823919 1.1068138 0.5831573 -1.2260959 -0.7257946 0.24117772 0.7847898
-0.07989069 -0.086502686 0.030376742 -0.18155101 0.024022557 -0.047982797 -0.1691021 -0.19108987
-0.12495068 -0.9073589 0.6101525 -0.07971322 0.19237424 -0.67117023 -0.20430547 0.6455698
00000000: 898a b9be a93a 043f 511b ac3f c6e6 3c3d
00000010: 0836 5cbe ec5a 953e ec5c 333f 6869 e8bd
00000020: 41e5 3dbd f1c4 3a3e 13ac 8d3f cc49 153f
00000030: b6f0 9cbf adcd 39bf 4bf7 763e fce7 483f
00000040: bb9d a3bd 5228 b1bd a5d8 f83c 82e8 39be
00000050: f4ca c43c 9c89 44bd 1a29 2dbe 10ad 43be
00000060: 24e6 ffbd ac48 68bf f432 1c3f af40 a3bd
00000070: c1fd 443e d0d1 2bbf 7435 51be 1044 253f

layer3.weight f4 [7, 32]
0.36289334 0.09993589 1.1676071 0.5167699 0.008296013 0.26242888 0.6487704 -0.076376446
0.019545924 -0.2824658 -1.4679776 0.50773126 -1.7848467 -1.131512 0.18516007 -0.027104236
-0.18041706 -0.011173937 -1.1817583 -0.058427114 -0.07863021 -0.7340378 -0.1281309 -0.11747094
-0.07239682 -1.8587615 -1.7070401 0.06021588 0.1456754 0.19853894 -0.120495245 0.31584048
-0.6761888 -0.5735918 -0.32112837 0.5615169 -0.12411314 -0.88510346 -0.3961064 -0.07983513
-0.056544952 0.71091676 0.69054663 -0.38220602 -0.7564344 0.1863714 -0.578774 -0.7070867
-0.0055514653 -0.052897643 0.3934018 -0.014363886 -0.1792139 -0.27303278 -0.18720719 -0.094633006
-0.03363982 -2.5066342 0.7455689 -0.12835231 -0.35276178 -0.9056111 -0.07615883 0.3659525
-0.4971055 0.5719984 -2.1057122 -1.0796416 -0.18837704 -1.0788114 -0.2663099 -0.109500624
-0.14535657 0.033283412 1.6143504 -0.12778705 -4.8864717 0.8148242 -0.027412036 1.1125424
0.11037949 -0.01400808 0.38752472 -0.11518087 -0.17171255 0.9392743 -0.006374974 -0.0115066385
0.067817464 1.3281153 0.98170036 0.03771851 0.12496531 -0.48004255 0.109922 -0.80303967
-0.3437006 -0.009273563 0.3795071 0.114453964 -0.025997877 -0.089804284 -0.5623948 0.11959426
-0.08764763 -0.22958373 0.00019253416 -0.8917246 -1.5934515 -0.62001365 -0.4629307 0.047785703
-0.10467814 -0.15974487 0.04534806 -0.19710512 0.12229381 -0.49989265 -0.00051236385 -0.20836216
-0.17016408 -0.7589366 0.6965449 0.0790029 -0.71035457 0.37154564 0.14017183 -0.4771292
0.10950109 -0.39467362 0.7480319 -0.22300166 -0.093649596 0.097848795 0.4787586 -0.00033691624
-0.19716556 -0.10839715 -1.1685524 0.50130695 -1.4831852 -0.3712111 0.60608244 0.24971296
0.03923133 -0.019610403 -0.824231 0.09034777 -0.0933548 -0.1495362 -0.17259614 0.0339495
0.02569677 -1.2404838 -1.9137682 -0.06876178 0.4462803 -0.8265123 -0.18684323 -0.13024676
-0.30319512 0.09658133 0.73867357 0.12726262 0.14068711 -0.12327034 -0.069149 -0.18369102
-0.091908306 -0.010364452 -0.88364565 0.41353494 -3.6078682 -0.5086892 -0.75967985 0.07217217
0.096324526 -0.058781922 0.035562947 0.014425666 -0.012003894 -0.49091187 -0.20521522 -0.14746672
-0.17612377 -0.5446229 -1.0556406 0.04795219 0.13810605 -0.04925385 0.14584355 0.1530937
-0.3918288 0.12790433 0.32589754 -0.07313247 0.045031417 0.07615824 -0.09032693 0.06734022
-0.023157127 -0.21934837 0.52887166 -0.94195634 -1.5657666 -0.4203458 0.006596466 -0.8419616
-0.014785738 0.05324937 -0.4436507 -0.21281259 -0.15846783 -0.1706202 -0.028752258 0.078399025
-0.10453687 -2.132464 0.6762873 -0.01233349 -0.92332464 0.13307403 0.0072695743 -0.5096636
00000000: 28cd b93e 30ab cc3d 2674 953f 084b 043f
00000010: 00ec 073c 145d 863e d115 263f 416b 9cbd
00000020: c61e a03c 5b9f 90be b1e6 bbbf adfa 013f
00000030: db75 e4bf 63d5 90bf 9a9a 3d3e b409 debc
00000040: 40bf 38be e312 37bc db43 97bf 4551 6fbd
00000050: e008 a1bd e7e9 3bbf bf34 03be 9b94 f0bd
00000060: c944 94bd e6eb edbf 4a80 dabf eda4 763d
00000070: ef2b 153e cb4d 4b3e 36c6 f6bd d8b5 a13e
00000080: b61a 2dbf ead6 12bf f06a a4be 92bf 0f3f
00000090: 082f febd 2496 62bf 75ce cabe 9a80 a3bd
000000a0: ae9b 67bd a4fe 353f aac7 303f 82b0 c3be
000000b0: afa5 41bf 25d8 3e3e 882a 14bf a203 35bf
000000c0: 11e9 b5bb 33ab 58bd f66b c93e 8156 6bbc
000000d0: d983 37be f4ca 8bbe 3eb3 3fbe f3ce c1bd
000000e0: e8c9 09bd b26c 20c0 9add 3e3f ca6e 03be
000000f0: 319d b4be 21d6 67bf 29f9 9bbd 205e bb3e
00000100: 9d84 febe 7d6e 123f fdc3 06c0 b231 8abf
00000110: e9e5 40be 7e16 8abf c559 88be dd41 e0bd
00000120: 5ad8 14be 3054 083d 09a3 ce3f 9cda 02be
00000130: fa5d 9cc0 5298 503f 358f e0bc ca67 8e3f
00000140: a40e e23d 2582 65bc a469 c63e f3e3 ebbd
00000150: 6ad5 2fbe 4874 703f 28e5 d0bb 5786 3cbc
00000160: e2e3 8a3d afff a93f b750 7b3f b97e 1a3d
00000170: d0ed ff3d 23c8 f5be c91e e13d 0294 4dbf
00000180: 86f9 afbe 24f0 17bc c14e c23e d766 ea3d
00000190: 80f9 d4bc 4feb b7bd 1bf9 0fbf d6ed f43d
000001a0: 9a80 b3bd ff17 6bbe ffe2 4939 1048 64bf
000001b0: 38f6 cbbf 37b9 1ebf 4105 edbe f1ba 433d
000001c0: 7e61 d6bd 2994 23be e3be 393d edd5 49be
000001d0: 2d75 fa3d eef1 ffbe 2850 06ba e45c 55be
000001e0: 7e3f 2ebe ab49 42bf c450 323f 46cc a13d
000001f0: ccd9 35bf 3b3b be3e 3489 0f3e 474a f4be
00000200: 1c42 e03d a912 cabe 057f 3f3f 8c5a 64be
00000210: 5ccb bfbd f364 c83d d91f f53e 22a4 b0b9
00000220: c5e5 49be 53ff ddbd 2093 95bf a755 003f
00000230: 03d9 bdbf 620f bebe 3828 1b3f c1b4 7f3e
00000240: 08b1 203d ffa5 a0bc ce00 53bf 4008 b93d
00000250: cd30 bfbd 0520 19be 0bbd 30be a20e 0b3d
00000260: 0882 d23c 2cc8 9ebf 5bf6 f4bf fad2 8cbd
00000270: da7e e43e 4f96 53bf d553 3fbe 685f 05be
00000280: 643c 9bbe 6fcc c53d b619 3d3f 2251 023e
00000290: 4810 103e 2975 fcbd fe9d 8dbd 8019 3cbe
000002a0: 6c3a bcbd aacf 29bc 9a36 62bf daba d33e
000002b0: 50e7 66c0 7539 02bf 617a 42bf 01cf 933d
000002c0: cb45 c53d 50c5 70bd 74aa 113d a159 6c3c
000002d0: fbab 44bc cd58 fbbe f023 52be 8401 17be
000002e0: ca59 34be 686c 0bbf 3b1f 87bf 8469 443d
000002f0: ac6b 0d3e 68be 49bd 0358 153e 98c4 1c3e
00000300: c99d c8be 5af9 023e 0bdc a63e 7ac6 95bd
00000310: dd72 383d daf8 9b3d 53fd b8bd abe9 893d
00000320: 04b4 bdbc dc9c 60be 2264 073f 0d24 71bf
00000330: 0a6b c8bf 9137 d7be 2b27 d83b cc8a 57bf
00000340: e13f 72bc 031c 5a3d 2f26 e3be 8beb 59be
00000350: 6445 22be 10b7 2ebe db89 ebbc ab8f a03d
00000360: 6d17 d6bd 4a7a 08c0 2a21 2d3f 6812 4abc
00000370: 015f 6cbf 8f44 083e 9c35 ee3b 5079 02bf

layer3.bias f4 [7]
0.36745957 0.5274598 -0.014720502 -0.6038969 -0.6349499 -1.8994964 0.6521386
00000000: a923 bc3e 9b07 073f 432e 71bc fd98 1abf
00000010: 148c 22bf b322 f3bf 8ef2 263f
